src/FullModelScaleDownAndUp_001.pt (torch, 848467 bytes, 44 tensors)

lstm1.weight_ih_l0 f4 [384, 96]
0.05896849 -0.093181215 0.07996612 0.049916018 -0.065067306 0.05752094 -0.01624358 0.033822414
0.10153652 0.04791938 0.046422735 0.09049972 -0.089128844 0.05383742 -0.04362929 0.029499946
-0.06473406 -0.03967098 -0.033571523 0.018728822 0.040010788 -0.035968386 -0.015885806 -0.08156107
-0.02284695 -0.065147236 -0.052784607 -0.09486278 0.026483018 -0.049756657 -0.10117078 0.01920055
0.06526528 0.03563767 -0.098705575 -0.055170007 0.005578308 -0.06540072 0.055966515 0.019642204
0.08960967 -0.050993588 -0.09693107 0.036375545 -0.06675422 0.018520819 0.0010909436 -0.08002561
0.06134558 -0.072533794 0.09959315 -0.05136039 -0.09297281 0.0090106325 -0.035462372 0.07582221
0.09409458 -0.066289976 -0.08899376 0.052426502 -0.053052604 -0.0912987 -0.04311484 -0.08658077
0.012597463 0.050747503 0.08662488 0.017604664 0.09472858 0.005512863 -0.06033815 -0.06792572
0.059406493 -0.040936008 0.08109231 -0.0013070615 -0.08562043 0.022912176 0.09416189 -0.077198975
-0.044454545 0.057398614 -0.057164233 -0.073902056 0.004891957 -0.0411412 -0.008843619 0.078650735
0.0014611168 0.0035174675 -0.08265968 -0.021972222 0.033281628 0.09564062 -0.07234539 0.0756555
0.07118406 -0.00340046 0.08159123 0.07000901 0.016371477 0.012518525 -0.042831723 -0.048299614
-0.0020315791 -0.04849651 -0.0562477 0.0030085081 0.002580044 0.09782577 -0.026450813 0.09107026
0.06523125 0.0288828 0.048483748 -0.039996807 -0.014077803 -0.099665046 -0.06760188 0.0891865
-0.03862171 0.0033707002 -0.079342864 0.06298262 0.06657749 0.06631554 -0.08585518 -0.033957537
0.07074078 -0.089661166 0.060427357 -0.02373359 0.017018227 0.03171876 -0.096833736 -0.07369247
0.004178268 0.013242495 0.036337074 -0.09787919 0.026268324 -0.08248404 -0.01290331 0.00045282202
-0.04492339 0.10160003 -0.02996591 0.096347064 -0.062240385 0.017703433 0.011302763 0.064134225
0.0750359 -0.0897558 0.052582227 -0.06614277 -0.092865705 0.01898205 -0.021862367 -0.086627826
0.022048982 0.047208026 -0.010221139 0.0019794812 -0.044542428 -0.074100055 0.06884633 -0.04458804
-0.0014543887 -0.086357765 -0.057744358 0.02008196 0.09999446 0.08375936 -0.035549898 -0.015203896
-0.099594064 -0.028020762 -0.096185096 0.015926102 0.09600154 -0.09123518 -0.083216734 -0.10133791
0.044181123 -0.005415894 -0.0062130103 -0.031088036 -0.06051807 0.04443183 -0.09173909 -0.03143665
-0.054045957 -0.03302547 -0.008721174 -0.09912459 -0.038733315 -0.07126079 0.06781424 0.019267797
-0.08966697 0.07227164 0.07585374 -0.059102118 0.037730765 0.0473596 -0.08142417 -0.015213934
0.054780077 0.030893294 0.071762614 -0.069368824 -0.008105463 -0.020826917 -0.026799086 -0.017889572
-0.050234288 0.046350636 0.023322877 -0.099543184 -0.054834716 -0.023096357 -0.09721358 -0.068280965
0.06798304 0.039474234 -0.036268793 -0.058612406 -0.07861398 -0.043158118 0.08840344 0.020548372
0.0025089537 0.097596236 0.026497716 0.098791935 -0.07468125 -0.07649105 -0.029278914 -0.0786626
-0.0022510309 -0.08232922 -0.02030477 0.029576123 0.08826566 -0.07888821 -0.057856146 0.029154606
-0.014729478 -0.035624225 0.050402053 0.074130446 0.06662046 -0.07940999 -0.03527931 0.03232588
00000000: f288 713d cbd5 bebd 47c5 a33d bd74 4c3d
00000010: 0242 85bd 149b 6b3d 4211 85bc 5f89 0a3d
00000020: 61f2 cf3d 1d47 443d c425 3e3d eb57 b93d
00000030: 2f89 b6bd a084 5c3d a0b4 32bd dfa9 f13c
00000040: 4a93 84bd 0a7e 22bd 4b82 09bd 306d 993c
00000050: 5ae2 233d 9653 13bd f322 82bc 7e09 a7bd
00000060: 8729 bbbc ea6b 85bd ac34 58bd 6b47 c2bd
00000070: eaf2 d83c a3cd 4bbd a032 cfbd 794a 9d3c
00000080: cea9 853d cef8 113d 2626 cabd f2f9 61bd
00000090: 3dca b63b d0f0 85bd 253d 653d b0e8 a03c
000000a0: 4685 b73d a7de 50bd cc83 c6bd 86fe 143d
000000b0: 70b6 88bd f9b8 973c fefd 8e3a 78e4 a3bd
000000c0: 8145 7b3d 998c 94bd 7ef7 cb3d 465f 52bd
000000d0: 8768 bebd 55a1 133c fe40 11bd ad48 9b3d
000000e0: a9b4 c03d 0ac3 87bd 5c42 b6bd 2cbd 563d
000000f0: b04d 59bd d0fa babd 3099 30bd 4251 b1bd
00000100: 9765 4e3c 9ddc 4f3d 6368 b13d a837 903c
00000110: 0f01 c23d 3fa5 b43b 2325 77bd a41c 8bbd
00000120: 3954 733d 84ac 27bd ba13 a63d b551 abba
00000130: c459 afbd 51b2 bb3c f3d7 c03d 7f1a 9ebd
00000140: f815 36bd cf1a 6b3d 0b25 6abd f659 97bd
00000150: b64c a03b ad83 28bd d4e4 10bc a313 a13d
00000160: f282 bf3a 5085 663b 7a49 a9bd 17ff b3bc
00000170: 5152 083d 3bdf c33d d229 94bd 45f1 9a3d
00000180: f3c8 913d 40da 5ebb 4e19 a73d e260 8f3d
00000190: 7a1d 863c 801a 4d3c 5170 2fbd d1d5 45bd
000001a0: 3e24 05bb 47a4 46bd fd63 66bd 642a 453b
000001b0: f515 293b e158 c83d 60af d8bc 0b83 ba3d
000001c0: f697 853d 9f9b ec3c e596 463d b1d3 23bd
000001d0: 96a6 66bc 301d ccbd db72 8abd 69a7 b63d
000001e0: cc31 1ebd f7e6 5c3b 837e a2bd 08fd 803d
000001f0: c759 883d 71d0 873d d7d4 afbd 0f17 0bbd
00000200: 8be0 903d 46a0 b7bd ad82 773d f26c c2bc
00000210: cf69 8b3c 88eb 013d c450 c6bd 14ec 96bd
00000220: dae9 883b 0df7 583c 2fd6 143d e374 c8bd
00000230: ab30 d73c 64ed a8bd 6868 53bc be68 ed39
00000240: 9701 38bd ad13 d03d 117b f5bc 9c51 c53d
00000250: c6ef 7ebd ca06 913c 392f 393c ce58 833d
00000260: 6cac 993d e4d1 b7bd 7660 573d dc75 87bd
00000270: 6030 bebd 3e80 9b3c b518 b3bc ee69 b1bd
00000280: 11a0 b43c 345d 413d 9076 27bc 2fba 013b
00000290: 1f72 36bd c5c1 97bd 4eff 8c3d f3a1 36bd
000002a0: 30a1 beba 57dc b0bd 5985 6cbd ec82 a43c
000002b0: e5c9 cc3d 078a ab3d c59c 11bd c319 79bc
000002c0: f9f7 cbbd cc8b e5bc b1fc c4bd 7577 823c
000002d0: 759c c43d 83d9 babd 896d aabd 408a cfbd
000002e0: 44f7 343d d077 b1bb 8296 cbbb 56ac febc
000002f0: cce1 77bd 27fe 353d b4e1 bbbd b7c3 00bd
00000300: 4b5f 5dbd b745 07bd 41e3 0ebc d501 cbbd
00000310: d3a6 1ebd 2df1 91bd 31e2 8a3d 80d7 9d3c
00000320: 51a3 b7bd 2703 943d 3559 9b3d 1015 72bd
00000330: 938b 1a3d 24fc 413d b7c1 a6bd dd43 79bc
00000340: 1361 603d ef13 fd3c 47f8 923d 3e11 8ebd
00000350: c7cc 04bc 369d aabc c289 dbbc 278d 92bc
00000360: 78c2 4dbd 2ada 3d3d 9e0f bf3c 4cdd cbbd
00000370: 5e9a 60bd 9234 bdbc ea17 c7bd e4d6 8bbd
00000380: b13a 8b3d bcaf 213d 968e 14bd 9013 70bd
00000390: 5e00 a1bd 91c6 30bd dd0c b53d 0f55 a83c
000003a0: 426d 243b 89e0 c73d bd11 d93c 6d53 ca3d
000003b0: 7cf2 98bd 57a7 9cbd 55da efbc db19 a1bd
000003c0: 0886 13bb 399c a8bd 3056 a6bc a049 f23c
000003d0: a0c4 b43d 2490 a1bd 91fa 6cbd a4d5 ee3c
000003e0: e953 71bc b5ea 11bd 6272 4e3d b4d1 973d
000003f0: 4f70 883d b4a1 a2bd 0a81 10bd 2468 043d

lstm1.weight_hh_l0 f4 [384, 96]
0.033600297 0.10193095 -0.0642707 -0.009298692 0.0639154 -0.06271851 -0.008493814 0.008758939
-0.08119569 -0.02671263 0.06188914 -0.033048403 0.006177958 0.07303825 0.0093153855 0.07341925
-0.08058871 -0.04994591 0.06493353 -0.043308668 -0.042346023 -0.08956987 0.01961057 -0.094302066
-0.043283775 0.0048616375 -0.04344523 0.008439477 0.07421704 -0.08846368 -0.042326473 -0.03916005
0.021025952 -0.08143906 -0.028703462 -0.08343057 0.058904614 -0.09741242 0.078185916 0.10019566
0.010013233 -0.09114798 0.056839846 0.08920428 -0.042209357 0.082722165 -0.041994516 -0.017110353
0.009001349 -0.05694807 0.038220573 -0.10116584 0.08302484 -0.04748391 -0.10096056 0.060209572
0.09778246 0.06323238 0.06846661 0.100659214 0.055910304 -0.03208179 0.10175712 0.0044681286
0.06581216 0.093413904 -0.014220458 0.018432282 -0.061691932 0.06494806 -0.05225797 -0.082639486
0.029449686 -0.0839529 0.01172451 -0.013431092 -0.07166885 0.09655063 0.043718215 0.040058516
-0.057339497 -0.08076804 0.056252386 0.03464092 -0.09824833 0.029451584 0.026382655 -0.09230662
-0.065380074 -0.026773743 0.06815737 0.06388393 0.026310908 0.0037265045 0.09472216 0.04768876
0.034186225 -0.036426827 -0.045979053 -0.096887 0.039263785 -0.09593451 0.023129437 -0.026537089
0.016135091 -0.09582499 -0.02478627 0.07703927 -0.06523791 0.019531097 -0.042730395 -0.09108686
0.03356617 -0.048906967 0.008727488 -0.057071988 -0.08242138 0.06142217 0.030129552 0.008422005
-0.004184339 0.083576165 -0.087436914 -0.07735161 -0.06453738 0.019436305 -0.079240106 -0.020342862
-0.012155372 -0.030332334 -0.096446976 -0.042570792 -0.09742337 -0.045886878 0.03381604 -0.09405885
0.056187086 0.100309946 -0.086829625 -0.008876287 0.0018580692 -0.08671812 -0.011465201 -0.08904002
-0.048950087 0.076094255 -0.06301048 0.0768279 -0.098929785 -0.05060587 -0.03516027 0.06376061
0.076627746 0.06817536 0.025954762 0.101597875 -0.09195592 -0.053521145 0.07377226 0.01593047
-0.0984798 -0.028921321 0.061678525 -0.022819672 0.04998875 0.012831465 0.08352156 -0.09549773
-0.06652593 -0.065448344 -0.06782053 0.0027833625 0.039268192 0.0044193277 0.003093055 -0.09938875
0.0389813 -0.047523525 0.009816631 0.09776434 -0.06325221 -0.03104084 0.036481712 0.033091486
0.008637953 0.07962702 -0.04633077 -0.02899847 0.06532183 0.092720814 0.05715606 -0.064703785
-0.09229311 0.004828763 0.027673913 -0.06869308 0.06867192 0.06301339 -0.014847411 0.07923302
0.06582348 0.017057281 -0.089739084 -0.09994087 -0.08929862 0.10027687 0.047127374 0.040173322
0.09755365 -0.049936056 0.094109565 0.041916355 -0.079527386 0.09227254 -0.07308154 0.05023684
0.07511531 -0.036901284 -0.06785062 -0.059813652 0.047445633 -0.04661424 -0.07631742 0.09598396
-0.101764165 -0.018898914 -0.052902587 0.06148028 0.033503413 -0.053313434 -0.0444627 -0.00066470593
0.1006565 0.08253301 0.071511894 0.006565189 -0.013693187 0.041163467 -0.054353885 0.030701935
0.0743605 -0.06948571 0.020336134 -0.039200738 0.09317916 0.039990954 0.09764848 0.049294684
0.034064874 -0.03142492 0.05521753 -0.040688805 0.09856532 0.056294095 -0.020363558 -0.09220118
00000000: 77a0 093d 2dc1 d03d 5ba0 83bd 8b59 18bc
00000010: 14e6 823d 9072 80bd a329 0bbc a781 0f3c
00000020: ed49 a6bd 72d4 dabc 787f 7d3d c35d 07bd
00000030: 7870 ca3b 1495 953d 8f9f 183c d55c 963d
00000040: b20b a5bd 1594 4cbd dffb 843d 6e64 31bd
00000050: 0673 2dbd 6870 b7bd 59a6 a03c 7121 c1bd
00000060: 544a 31bd 5f4e 9f3b a0f3 31bd bb45 0a3c
00000070: 1aff 973d 722c b5bd 865e 2dbd 4a66 20bd
00000080: 9e3e ac3c 86c9 a6bd 8623 ebbc a6dd aabd
00000090: f745 713d 2a80 c7bd f01f a03d 6233 cd3d
000000a0: 8b0e 243c cbab babd e6d0 683d bcb0 b63d
000000b0: b8e3 2cbd 3d6a a93d 7102 2cbd 032b 8cbc
000000c0: 657a 133c 6142 69bd 2d8d 1c3d 0930 cfbd
000000d0: ed08 aa3d 7d7e 42bd 69c4 cebd 509e 763d
000000e0: 2c42 c83d fa7f 813d 3938 8c3d 6b26 ce3d
000000f0: 3402 653d 3268 03bd 0966 d03d 6169 923b
00000100: 87c8 863d ca4f bf3d edfc 68bc 4cff 963c
00000110: aeb0 7cbd 7d03 853d 740c 56bd e43e a9bd
00000120: 7840 f13c 7fef abbd 2918 403c 150e 5cbc
00000130: 1ec7 92bd 56bc c53d df11 333d 6614 243d
00000140: d2dc 6abd b769 a5bd e768 663d a3e3 0d3d
00000150: 6c36 c9bd 7344 f13c 7020 d83c 410b bdbd
00000160: fde5 85bd 9c54 dbbc 1796 8b3d 94d5 823d
00000170: f989 d73c 5f38 743b b1fd c13d 4a55 433d
00000180: db06 0c3d 4c34 15bd 8854 3cbd b16c c6bd
00000190: 10d3 203d 5079 c4bd f279 bd3c 4f64 d9bc
000001a0: bd2d 843c e43f c4bd 930c cbbc c4c6 9d3d
000001b0: 749b 85bd aeff 9f3c 1106 2fbd bf8b babd
000001c0: ae7c 093d ac52 48bd bdfd 0e3c 51c4 69bd
000001d0: 8acc a8bd d095 7b3d 40d2 f63c 73fc 093c
000001e0: c81c 89bb fb29 ab3d 2012 b3bd 856a 9ebd
000001f0: 2d2c 84bd e338 9f3c a348 a2bd 13a6 a6bc
00000200: 5327 47bc 847b f8bc fe85 c5bd b65e 2ebd
00000210: e785 c7bd e1f3 3bbd b082 0a3d eda1 c0bd
00000220: 6e24 663d 4d6f cd3d bbd3 b1bd d96d 11bc
00000230: 758a f33a 4599 b1bd 8ad8 3bbc 9d5a b6bd
00000240: e37f 48bd 4ed7 9b3d a30b 81bd f257 9d3d
00000250: b39b cabd 1a48 4fbd 3704 10bd ec94 823d
00000260: 02ef 9c3d 869f 8b3d 159f d43c 8c12 d03d
00000270: 6353 bcbd fd38 5bbd e915 973d 9e80 823c
00000280: c7af c9bd 68ec ecbc 9fa2 7c3d 52f0 babc
00000290: 01c1 4c3d 113b 523c 5a0d ab3d 5094 c3bd
000002a0: bf3e 88bd c809 86bd 7de5 8abd 1369 363b
000002b0: afd7 203d 02d0 903b dab4 4a3b 548c cbbd
000002c0: dbaa 1f3d 07a8 42bd efd5 203c ac38 c83d
000002d0: 608a 81bd 5c49 febc d96d 153d f08a 073d
000002e0: 3386 0d3c 7e13 a33d 55c5 3dbd 338e edbc
000002f0: 74c7 853d 69e4 bd3d 791c 6a3d 6b83 84bd
00000300: 2c04 bdbd 9a3a 9e3b 67b4 e23c f5ae 8cbd
00000310: dda3 8c3d 2a0d 813d 8e42 73bc ec44 a23d
00000320: 76ce 863d b6bb 8b3c 20c9 b7bd cdad ccbd
00000330: 32e2 b6bd f65d cd3d a208 413d c88c 243d
00000340: 35ca c73d c089 4cbd 84bc c03d 7cb0 2b3d
00000350: 41df a2bd 63f9 bc3d c6ab 95bd 25c5 4d3d
00000360: 0ed6 993d cd25 17bd 44f5 8abd 29ff 74bd
00000370: 5a56 423d 93ee 3ebd 4f4c 9cbd 3d93 c43d
00000380: bb69 d0bd e5d1 9abc 62b0 58bd bfd2 7b3d
00000390: e03a 093d 305f 5abd 851e 36bd a93f 2eba
000003a0: ff24 ce3d 1107 a93d d474 923d cc20 d73b
000003b0: 6459 60bc 069b 283d 2ea2 5ebd a082 fb3c
000003c0: 514a 983d 864e 8ebd f797 a63c f490 20bd
000003d0: b7d4 be3d 8ecd 233d edfb c73d 39e9 493d
000003e0: 9c87 0b3d 6bb7 00bd c72b 623d 4ea9 26bd
000003f0: 9ddc c93d a394 663d 7ad1 a6bc f9d3 bcbd

lstm1.bias_ih_l0 f4 [384]
-0.0035557076 -6.5676104e-05 -0.031208485 -0.046465136 -0.07881052 0.022720987 -0.038073137 -0.06477323
-0.0528907 -0.032031845 -0.09588588 -0.030550582 0.024573412 -0.026115619 0.0748578 -0.05535522
0.014954393 0.101133496 -0.0879592 0.034318697 -0.025048912 0.023887973 0.065501556 -0.07484879
0.07190901 -0.010066621 0.00867039 0.05997878 -0.04677809 0.0746383 0.06954051 0.065551296
-0.049283504 0.05538317 0.069835 -0.055497512 -0.084178455 -0.10072659 0.0066294903 -0.060740262
0.08626065 0.04590145 -0.07887913 -0.05554355 0.052091382 0.031939633 0.03290048 -0.066761315
-0.011126466 0.05795726 0.036397737 0.04257876 0.0318711 0.009078694 0.07222534 -0.08623962
0.035276353 0.03257048 -0.08904167 0.04558665 -0.03262416 -0.051829822 0.021777516 -0.048260428
-0.0051353164 -0.09295589 -0.077391796 -0.01647627 -0.010226066 0.030628314 -0.04536115 -0.07333362
-0.053145584 0.05064382 0.08950876 -0.10139201 -0.063421205 -0.09576081 0.016753295 -0.050659236
0.038488388 -0.07413928 -0.07066192 0.09358094 -0.031655274 -0.037845995 -0.07356608 0.092652164
0.030047134 0.07967887 0.06956965 -0.049740437 0.081863634 0.005981161 0.019087875 0.09177261
0.051859498 0.022529544 0.054147296 -0.061868373 -0.032761704 -0.076513365 -0.033117156 0.057665188
0.058486797 0.03613883 0.0074402215 -0.05325332 0.030264042 0.07937199 0.03433214 0.06321245
0.024619633 0.08798544 0.075471066 0.02810358 -0.054263778 0.0086887 0.050095852 -0.093674615
0.09761677 0.067622505 0.028553884 0.011990841 -0.035272118 -0.028018061 0.061357092 0.02642086
0.04636974 0.06913539 -0.017146135 -0.03976351 -0.028586661 -0.09161409 -0.075264096 -0.01931818
-0.07899768 0.050872628 -0.09929895 -0.07766681 -0.08182087 0.0041872105 -0.03653504 -0.00749468
-0.054318164 -0.08448053 -0.08009877 0.033601858 -0.06902456 -0.03941643 0.004853425 0.0022597301
0.096680015 -0.095878415 0.06171966 0.035774145 0.08302491 -0.071498744 -0.016932512 0.07799989
0.032701917 0.05191354 0.011852274 0.051617097 0.05211372 -0.0977762 -0.08127408 -0.03849065
-0.038373545 0.020835482 -0.003538808 -0.07261637 -0.07359377 0.09790893 0.061665006 0.07412341
0.019091647 -0.056604516 -0.0022981039 0.0733238 -0.026419435 0.01984124 -0.059037514 -0.0032331063
0.06552233 0.02862843 0.09846994 -0.056705732 0.019313896 -0.022612631 -0.08146106 0.09074799
-0.03875283 -0.03248013 -0.07627789 -0.04643489 -0.09102764 0.005188619 0.059306286 0.024006782
0.045717772 -0.087964065 -0.004959361 -0.012225331 -0.0062266006 0.07140085 0.045308895 -0.075260766
-0.045123924 0.044429593 0.04350325 0.08524269 -0.06946086 0.07542596 0.02661987 -0.071274914
0.045528747 -0.058980986 0.004072989 -0.054013815 -0.0061448766 0.039191347 0.015266786 -0.062173735
0.09703525 -0.036077898 0.0153225465 0.07514889 -0.025506455 -0.08228823 -0.035413083 -0.08315433
0.06207668 -0.059646737 -0.09350584 0.002158089 0.024007827 0.027654847 -0.008998807 0.0131214475
0.07707219 -0.100296624 0.077746294 0.05771 -0.00757318 -0.062897526 0.027240083 0.05542827
-0.051805962 0.09752633 -0.0839288 0.036124386 0.09251146 -0.028859427 -0.07439102 0.045429904
00000000: e006 69bb 97bb 89b8 f0a8 ffbc 3a52 3ebd
00000010: 6967 a1bd 5d21 ba3c 94f2 1bbd d4a7 84bd
00000020: eba3 58bd d333 03bd d15f c4bd 3745 fabc
00000030: 2e4e c93c 6cf0 d5bc 0c4f 993d 28bc 62bd
00000040: 4503 753c 141f cf3d f423 b4bd c391 0c3d
00000050: 6033 cdbc b6b0 c33c ae25 863d 534a 99bd
00000060: 0845 933d 78ee 24bc 400e 0e3c 4fac 753d
00000070: 629a 3fbd f7db 983d 416b 8e3d c23f 863d
00000080: 80dd 49bd 76d9 623d a705 8f3d 5c51 63bd
00000090: c165 acbd be49 cebd 323c d93b c8ca 78bd
000000a0: 6ca9 b03d 2903 3c3d 628b a1bd a281 63bd
000000b0: c65d 553d 22d3 023d a7c2 063d 28ba 88bd
000000c0: c84b 36bc 9864 6d3d cb15 153d 1167 2e3d
000000d0: 458b 023d cdbe 143c e1ea 933d 669e b0bd
000000e0: f07d 103d a068 053d 7b5b b6bd 11b9 3a3d
000000f0: e9a0 05bd 824b 54bd c366 b23c baac 45bd
00000100: 2846 a8bb a85f bebd 977f 9ebd 3ef9 86bc
00000110: 3b8b 27bc 3be8 fa3c 9dcc 39bd f02f 96bd
00000120: 2faf 59bd e56f 4f3d 5e50 b73d 9da6 cfbd
00000130: fae2 81bd 3e1e c4bd 353e 893c 0f80 4fbd
00000140: 00a6 1d3d 56d6 97bd 32b7 90bd 5da7 bf3d
00000150: f6a8 01bd 6704 1bbd d0a9 96bd 6bc0 bd3d
00000160: 6825 f63c ad2e a33d 887a 8e3d a1bc 4bbd
00000170: 1fa8 a73d 9dfd c33b 2d5e 9c3c 47f3 bb3d
00000180: a06a 543d e18f b83c 8ec9 5d3d b169 7dbd
00000190: 2331 06bd 0ab3 9cbd dba5 07bd 5532 6c3d
000001a0: da8f 6f3d 4f06 143d 1acd f33b 2720 5abd
000001b0: 4cec f73c c88d a23d dc9f 0c3d 8775 813d
000001c0: 1daf c93c b631 b43d 9390 9a3d 7b39 e63c
000001d0: b243 5ebd 0d5b 0e3c 4f31 4d3d 7ad8 bfbd
000001e0: 4deb c73d ab7d 8a3d d6e9 e93c 3b75 443c
000001f0: 7f79 10bd 2286 e5bc 9351 7b3d 8f70 d83c
00000200: 32ee 3d3d db96 8d3d 0d76 8cbc 10df 22bd
00000210: 932e eabc 2ba0 bbbd 1024 9abd 2941 9ebc
00000220: 89c9 a1bd d15f 503d 3f5d cbbd c70f 9fbd
00000230: b391 a7bd de34 893b c4a5 15bd ef95 f5bb
00000240: b97c 5ebd 2104 adbd d30a a4bd 1aa2 093d
00000250: c05c 8dbd 1f73 21bd 7b09 9f3b fb17 143b
00000260: 2c00 c63d e75b c4bd c1cd 7c3d e987 123d
00000270: f708 aa3d ef6d 92bd 0db6 8abc 68be 9f3d
00000280: 72f2 053d 4ba3 543d 0a30 423c 736c 533d
00000290: 3275 553d e33e c8bd 0673 a6bd 5fa8 1dbd
000002a0: 942d 1dbd 2caf aa3c 59eb 67bb e4b7 94bd
000002b0: 55b8 96bd 7a84 c83d 7294 7c3d 04ce 973d
000002c0: 1666 9c3c 23da 67bd c99b 16bb ca2a 963d
000002d0: 926d d8bc 198a a23c 52d1 71bd 86e2 53bb
000002e0: 9230 863d 2b86 ea3c 9caa c93d 4544 68bd
000002f0: 2d38 9e3c 203e b9bc 0ed5 a6bd 15da b93d
00000300: 4abb 1ebd e309 05bd 9537 9cbd 8332 3ebd
00000310: b36c babd 4a05 aa3b 26eb 723d dfa9 c43c
00000320: 8f42 3b3d 8126 b4bd 2382 a2bb c14c 48bc
00000330: 8308 ccbb 9c3a 923d d295 393d 5122 9abd
00000340: ddd3 38bd cefb 353d 7730 323d b893 ae3d
00000350: 7f41 8ebd ed78 9a3d ea11 da3c 95f8 91bd
00000360: 5a7c 3a3d 0c96 71bd b576 853b 973d 5dbd
00000370: f65a c9bb 1b87 203d 8b21 7a3c e3a9 7ebd
00000380: 6bba c63d 6bc6 13bd 6b0b 7b3c a9e7 993d
00000390: eaf2 d0bc bb86 a8bd 4f0d 11bd d14c aabd
000003a0: 1e44 7e3d 2350 74bd fd7f bfbd ba6e 0d3b
000003b0: 10ac c43c 6b8c e23c bb6f 13bc 57fb 563c
000003c0: 06d8 9d3d 5168 cdbd 7339 9f3d 5261 6c3d
000003d0: 7028 f8bb 6bd0 80bd 9826 df3c c108 633d
000003e0: 7d32 54bd e2bb c73d dde2 abbd 2af7 133d
000003f0: a676 bd3d 9b6a ecbc 525a 98bd b514 3a3d

lstm1.bias_hh_l0 f4 [384]
-0.015045704 -0.0034905912 0.043212503 0.070624426 -0.06571846 0.059704006 -0.032941796 -0.087486535
-0.056466144 0.055217907 -0.08032129 -0.05829774 0.09703469 0.07956064 0.101900086 -0.045781683
-0.09217387 -0.002284757 -0.0021321373 0.075466506 -0.033916317 0.09885592 -0.07310773 -0.07498328
-0.07237246 0.0112233255 -0.08124533 0.09554913 -0.02246405 0.05970554 0.055707194 0.09526644
-0.061478756 0.016172405 -0.08389997 -0.015053746 -0.08015937 0.034592483 0.051332008 -0.021435387
0.0130176535 -0.094978355 0.00079579046 0.07797773 0.01961635 -0.0014664338 -0.054631677 -0.090081125
0.0256591 -0.080595806 -0.09718489 0.10032231 -0.017378824 0.09984852 -0.07022873 -0.013529314
-0.06879561 0.0033254642 -0.024786087 -0.030469721 0.008393973 0.08739649 -0.014909741 -0.07131503
0.033834387 0.0074815154 0.027637314 -0.06630741 -0.052618835 -0.03916694 -0.05938507 0.07161918
0.030441822 -0.089867786 0.010009717 -0.08078004 -0.015263586 -0.067377135 -0.025557652 -0.088694505
0.029057248 0.06728726 -0.093575805 -0.05389728 -0.08328987 0.09441832 0.09987875 -0.023423677
0.007914847 -0.015187192 0.095885955 0.04561247 0.088137306 -0.03138135 0.025858864 0.012489884
0.094412394 -0.05322863 0.040717945 -0.083023086 -0.027673207 -0.03728984 -0.07230362 -0.045452464
0.04892287 -0.035945512 -0.031025194 0.06566817 -0.07220648 0.07167146 0.036864053 0.007489071
-0.01911463 0.028474119 0.047058426 -0.06524066 0.03384311 -0.055881616 0.0060230754 -0.07934857
0.028339446 0.019107865 0.050199732 0.0633681 0.068237595 0.09948962 -0.0580276 -0.06269905
0.03489573 0.042828266 -0.06352237 0.015088933 0.03958854 0.001148979 0.0793882 0.08710441
-0.06689711 0.054000333 -0.0061937994 -0.05034801 0.044702515 0.056366194 0.058710836 -0.008195716
0.04383589 0.0424893 0.016062906 0.0152883455 -0.027750002 -0.012469979 -0.05879397 -0.075206496
0.026027618 -0.07664657 -0.03996879 -0.030591996 -0.08756096 -0.030886542 0.04418862 0.05689682
0.04558036 -0.06246665 -0.047601815 0.04040185 0.030490965 -0.025712889 0.055116646 -0.06881181
-0.02480801 0.090493664 -0.026933786 -0.054569613 -0.026033822 0.08593246 -0.07824631 0.052128553
0.00583033 -0.061318256 0.057067994 -0.07796054 0.03708151 -0.038094234 -0.09853259 -0.018516768
-0.0539513 0.07084408 -0.07894862 -0.026728872 0.01267359 -0.046392005 -0.06828119 0.056710828
0.04780763 0.057719186 0.079302944 -0.06568263 -0.023696942 -0.09521675 -0.06151415 -0.084292114
-0.051009115 -0.101140216 -0.035811543 0.03548639 0.010688475 0.015682159 0.09302061 -0.09882638
-0.08014086 -0.06198713 0.09120984 -0.018032275 0.021607121 0.042943582 0.045181595 -0.034453504
-0.034803018 -0.0809047 0.03699421 -0.04672773 0.025924785 -0.036127504 -0.03369357 0.038946196
0.063415095 -0.021504251 0.024858624 -0.065349825 -0.016474092 0.04095748 0.022010498 0.03282226
-0.061509565 0.04230726 0.0726955 0.026372666 -0.07729298 0.0647918 -0.076478876 0.028295815
-0.04838471 0.04240591 0.09684237 0.04340474 0.044887535 0.025330767 0.023799911 -0.053779006
-0.08923271 0.041968856 0.041287407 -0.030249685 0.060914367 0.0807362 -0.048743203 -0.09058577
00000000: 4282 76bc 67c2 64bb 98ff 303d 8aa3 903d
00000010: 6697 86bd 308c 743d faed 06bd 242c b3bd
00000020: 0b49 67bd 2c2c 623d 7d7f a4bd 9cc9 6ebd
00000030: 20ba c63d b0f0 a23d feb0 d03d 9385 3bbd
00000040: a7c5 bcbd ddbb 15bb 54bb 0bbb 2f8e 9a3d
00000050: d6eb 0abd f974 ca3d 81b9 95bd d590 99bd
00000060: 0338 94bd 0ae2 373c f463 a6bd 43af c33d
00000070: 8706 b8bc cc8d 743d 3a2d 643d 0d1b c33d
00000080: 26d1 7bbd fe7b 843c bfd3 abbd fda3 76bc
00000090: 992a a4bd d9b0 0d3d 8341 523d 4499 afbc
000000a0: ff47 553c 0384 c2bd 989c 503a cab2 9f3d
000000b0: 78b2 a03c 5a35 c0ba 77c5 5fbd 747c b8bd
000000c0: 0833 d23c 6a0f a5bd df08 c7bd c975 cd3d
000000d0: 095e 8ebc 617d cc3d 15d4 8fbd 0eaa 5dbc
000000e0: b6e4 8cbd 08f0 593b 310c cbbc a39b f9bc
000000f0: e086 093c eefc b23d fc47 74bc 9d0d 92bd
00000100: ed95 0a3d 8027 f53b a667 e23c 2ecc 87bd
00000110: d986 57bd 836d 20bd c23d 73bd 14ad 923d
00000120: 2161 f93c 9a0c b8bd ccff 233c 0170 a5bd
00000130: 1f14 7abc 06fd 89bd 485e d1bc 77a5 b5bd
00000140: 7709 ee3c e7cd 893d aca4 bfbd 65c3 5cbd
00000150: e193 aabd 645e c13d 3b8d cc3d 03e3 bfbc
00000160: 46ad 013c b3d3 78bc db5f c43d 24d4 3a3d
00000170: 5581 b43d bb89 00bd f8d5 d33c 5fa2 4c3c
00000180: 495b c13d 4406 5abd dcc7 263d 0208 aabd
00000190: ecb2 e2bc 3bbd 18bd ec13 94bd 5d2c 3abd
000001a0: 5963 483d 9a3b 13bd 8c28 febc 097d 863d
000001b0: fee0 93bd 7dc8 923d c3fe 163d e266 f53b
000001c0: 4996 9cbc 8e42 e93c 56c0 403d e59c 85bd
000001d0: 139f 0a3d 1fe4 64bd 385d c53b 8181 a2bd
000001e0: 2028 e83c 1988 9c3c 3c9e 4d3d 22c7 813d
000001f0: 27c0 8b3d 37c1 cb3d 59ae 6dbd 5c68 80bd
00000200: d3ee 0e3d b16c 2f3d 0418 82bd 9237 773c
00000210: 9827 223d 5699 963a 4896 a23d cc63 b23d
00000220: 5a01 89bd 742f 5d3d 5bf5 cabb b739 4ebd
00000230: fc19 373d 3de0 663d c67a 703d 5347 06bc
00000240: 438d 333d 4309 2e3d 5b96 833c f87b 7a3c
00000250: f953 e3bc e24e 4cbc f2d1 70bd dd05 9abd
00000260: df37 d53c e0f8 9cbd 50b6 23bd 119c fabc
00000270: 2953 b3bd c605 fdbc 20ff 343d a40c 693d
00000280: 79b2 3a3d 08dd 7fbd 1ffa 42bd 697c 253d
00000290: 30c8 f93c d6a3 d2bc fec1 613d 35ed 8cbd
000002a0: 2b3a cbbc be54 b93d 3ea4 dcbc 6384 5fbd
000002b0: e244 d5bc 5cfd af3d 9a3f a0bd c084 553d
000002c0: 5a0c bf3b da28 7bbd 21c0 693d c7a9 9fbd
000002d0: c8e2 173d b308 1cbd 74cb c9bd 7ab0 97bc
000002e0: 0afc 5cbd b316 913d d0af a1bd 82f6 dabc
000002f0: e4a4 4f3c 8b05 3ebd 02d7 8bbd 9d49 683d
00000300: efd1 433d f46a 6c3d 9569 a23d 9d84 86bd
00000310: 1720 c2bc 0001 c3bd 43f6 7bbd 58a1 acbd
00000320: efee 50bd 9a22 cfbd 20af 12bd 2d5a 113d
00000330: b71e 2f3c df77 803c 9781 be3d 7c65 cabd
00000340: e420 a4bd 38e6 7dbd 39cc ba3d 6cb8 93bc
00000350: 6b01 b13c 9ce5 2f3d 5610 393d 1e1f 0dbd
00000360: 9c8d 0ebd 5db1 a5bd 3e87 173d 9465 3fbd
00000370: 3760 d43c 6ffa 13bd 4502 0abd 0c86 1f3d
00000380: c6df 813d af29 b0bc 50a4 cb3c 21d6 85bd
00000390: adf4 86bc 08c3 273d 5c4f b43c a270 063d
000003a0: 74f1 7bbd 614a 2d3d 61e1 943d 7d0b d83c
000003b0: c84b 9ebd 90b1 843d f5a0 9cbd a0cc e73c
000003c0: 0c2f 46bd d2b1 2d3d 4b55 c63d 2bc9 313d
000003d0: fedb 373d 7882 cf3c 08f8 c23c 6047 5cbd
000003e0: a4bf b6bd 89e7 2b3d fc1c 293d 30ce f7bc
000003f0: 5881 793d 0559 a53d f4a6 47bd 0885 b9bd

fc_tactile1.weight f4 [48, 96]
-0.005640577 -0.064504765 -0.05610372 0.049066532 -0.090450056 0.038418293 -0.08445564 0.062023282
0.02075231 -0.07557469 0.049276885 -0.04830604 -0.05982666 -0.07884347 -0.06752802 -0.0587364
0.08272753 0.033935674 -0.061534848 0.038205497 0.05806921 0.09522738 -0.064245686 -0.092200674
-0.061573368 -0.04326307 0.015425076 -0.099474795 0.08662515 -0.041673835 -0.086473614 -0.07175611
0.005730891 0.08229878 -0.07928428 -0.06665983 0.06914579 0.02933443 -0.09961976 0.005995347
-0.052898623 -0.013377595 -0.06712505 -0.005608652 0.002585142 -0.04490591 0.086897746 0.07282978
-0.04214195 0.011568289 -0.023427583 0.023201184 0.0167855 0.053031363 -0.06751397 0.02938907
-0.059494156 -0.010117989 0.09730269 -0.054237925 0.0047795363 0.056779876 -0.016147403 0.03787159
0.07686215 -0.038429826 -0.03170597 -0.02347389 0.06640807 0.09910453 0.082484394 0.051764388
-0.0743996 0.07639024 -0.06343516 0.08625236 0.061279308 0.021132194 -0.05628447 -0.02895922
0.08533014 0.043667004 -0.051142156 -0.05045813 -0.048887562 0.0017997297 -0.02806421 -0.028738588
-0.07022566 0.099325836 -0.0109091075 -0.095943734 0.007952843 -0.067818195 0.001719052 0.057212003
0.09123986 0.012834362 0.019014558 -0.036195114 -0.09284736 -0.06064581 -0.038469322 -0.05315972
-0.06523344 0.09706636 -0.032860976 -0.07236684 0.0642671 0.08567539 -0.019730851 0.06371448
0.008454503 -0.08636661 0.0839184 -0.05111734 0.040707566 0.019311901 -0.06929291 0.0008380212
-0.06308023 0.0037145568 0.0604458 -0.061020207 -0.10203019 -0.0911709 -0.03277038 -0.054317422
0.09857199 -0.080326475 -0.013514945 0.04660215 0.08543911 0.01792353 -0.0053116735 0.017055944
-0.0006236918 -0.064110994 0.009563697 0.0891374 0.021360343 -0.09316686 -0.09306776 -0.09858976
-0.008729666 -0.012306908 -0.0717516 -0.015226417 0.09885456 -0.07752169 -0.047290664 0.009876454
0.01808811 0.06952515 0.048438426 0.080684155 0.088441536 0.0743249 -0.07398227 0.057528447
-0.090612166 -0.061174247 0.10051075 -0.05304179 -0.0048293835 -0.00462671 0.00526488 -0.10111577
-0.008107665 -0.035380185 -0.076447204 -0.016872615 0.008562178 0.08118848 0.060370296 -0.02766722
-0.04798658 -0.050427422 -0.08163756 0.075657785 0.008546228 0.054203846 0.05612254 -0.09950595
0.036194857 0.054156773 -0.03146292 -0.0003191216 0.08832877 -0.06346918 -0.058870777 0.05197327
-0.068939224 0.08135774 0.034957938 0.06956783 0.0901814 -0.06684273 -0.00807479 0.053924754
0.09476024 -0.075919874 -0.02800245 -0.077378966 0.0020367135 0.0005621159 0.015926577 0.04169891
0.002425867 0.07112594 0.020085536 -0.060071174 0.060362604 -0.092721954 0.0246806 0.050992955
-0.029336996 -0.04870253 -0.0031712628 0.05402587 0.053749066 0.049198955 -0.057728104 0.08426451
0.035355363 -0.04460208 -0.053852312 0.0890854 0.0947281 0.038232934 0.034724325 0.09353075
-0.030269006 0.10058156 -0.027131094 -0.07684615 -0.029876677 -0.09609556 -0.043685205 0.013365306
-0.022198401 0.060128152 -0.07954955 0.092469275 0.079916954 0.03112737 -0.013330363 0.08233249
-0.07931255 -0.098367445 0.049954526 -0.07127088 0.10199659 0.085622475 -0.03204287 -0.0938946
00000000: 97d4 b8bb 131b 84bd 04cd 65bd fdf9 483d
00000010: e13d b9bd 805c 1d3d 14f7 acbd 200c 7e3d
00000020: c000 aa3c e7c6 9abd 8fd6 493d 8edc 45bd
00000030: cd0c 75bd af78 a1bd 214c 8abd 9495 70bd
00000040: 0d6d a93d 2200 0b3d f70b 7cbd 5e7d 1c3d
00000050: fbd9 6d3d 9306 c33d 3e93 83bd b5d3 bcbd
00000060: 5b34 7cbd 9e34 31bd 75b9 7c3c 71b9 cbbd
00000070: 8768 b13d 2fb2 2abd 1419 b1bd def4 92bd
00000080: 33ca bb3b 438c a83d cc5f a2bd f384 88bd
00000090: 4f9c 8d3d c24e f03c 7205 ccbd 9e74 c43b
000000a0: 3aac 58bd b32d 5bbc dc78 89bd c8c8 b7bb
000000b0: 7c6b 293b 42ef 37bd 72f7 b13d c827 953d
000000c0: 0a9d 2cbd ec88 3d3c 34eb bfbc 6910 be3c
000000d0: bf81 893c 6a37 593d c444 8abd 59c1 f03c
000000e0: 25b0 73bd ecc5 25bc a246 c73d 9628 5ebd
000000f0: a89d 9c3b 0492 683d 8f47 84bc 3e1f 1b3d
00000100: e769 9d3d 9868 1dbd 1fde 01bd 514c c0bc
00000110: f400 883d 51f7 ca3d 94ed a83d e506 543d
00000120: d15e 98bd 7c72 9c3d 4bea 81bd 14a5 b03d
00000130: 0300 7b3d 6c1d ad3c 8b8a 66bd e33b edbc
00000140: 92c1 ae3d 2cdc 323d 707a 51bd 2fad 4ebd
00000150: 533e 48bd e8e4 eb3a eae6 e5bc 306d ebbc
00000160: 79d2 8fbd 586b cb3d 1dbc 32bc 267e c4bd
00000170: a44c 023c 44e4 8abd d051 e13a 2257 6a3d
00000180: f7db ba3d 3747 523c 6bc4 9b3c 5441 14bd
00000190: c226 bebd be67 78bd 0292 1dbd 02be 59bd
000001a0: 1c99 85bd baca c63d 3b99 06bd 1135 94bd
000001b0: 789e 833d 9476 af3d 98a2 a1bc bd7c 823d
000001c0: c184 0a3c fae0 b0bd 69dd ab3d 6a60 51bd
000001d0: fabc 263d fe33 9e3c 71e9 8dbd a7ae 5b3a
000001e0: 3530 81bd ec6f 733b 0496 773d 53f0 79bd
000001f0: 34f5 d0bd cfb7 babd 3c3a 06bd f27b 5ebd
00000200: 1de0 c93d 3582 a4bd ca6d 5dbc e5e1 3e3d
00000210: b3fa ae3d 5ed4 923c 8c0d aebb e8b8 8b3c
00000220: 407f 23ba a04c 83bd 0db1 1c3c ab8d b63d
00000230: e3fb ae3c 44ce bebd 4f9a bebd 6ee9 c9bd
00000240: df06 0fbc eaa2 49bc 81f2 92bd 3978 79bc
00000250: 4274 ca3d b1c3 9ebd dbb3 41bd dad0 213c
00000260: 842d 943c 3463 8e3d 5f67 463d bc3d a53d
00000270: d620 b53d a737 983d 0484 97bd f3a2 6b3d
00000280: df92 b9bd d991 7abd 95d8 cd3d 5942 59bd
00000290: ce3f 9ebb a89b 97bb 0485 ac3b c915 cfbd
000002a0: 03d6 04bc d0ea 10bd 5a90 9cbd 7038 8abc
000002b0: 6148 0c3c 2546 a63d d846 773d 5ea6 e2bc
000002c0: 938d 44bd fc8c 4ebd 9831 a7bd 78f2 9a3d
000002d0: 7a05 0c3c da04 5e3d c0e0 653d c7c9 cbbd
000002e0: 0f41 143d 7ed3 5d3d 43df 00bd c74f a7b9
000002f0: b7e5 b43d 21fc 81bd 7c22 71bd ece1 543d
00000300: 0230 8dbd e39e a63d 0e30 0f3d 9479 8e3d
00000310: 07b1 b83d d7e4 88bd 204c 04bc 34e0 5c3d
00000320: a811 c23d e17b 9bbd 6565 e5bc dd78 9ebd
00000330: 627a 053b f65a 133a 7478 823c 7acc 2a3d
00000340: 4bfb 1e3b 7aaa 913d 6c8a a43c 310d 76bd
00000350: c73e 773d 02e5 bdbd f82e ca3c fddd 503d
00000360: 2454 f0bc 4e7c 47bd f6d4 4fbb 3b4a 5d3d
00000370: fb27 5c3d d884 493d 4e74 6cbd df92 ac3d
00000380: c9d0 103d acb0 36bd 3e94 5cbd 6872 b63d
00000390: ce00 c23d 239a 1c3d 183b 0e3d 0d8d bf3d
000003a0: b5f6 f7bc b4fd cd3d 0742 debc 8461 9dbd
000003b0: efbf f4bc c0cd c4bd 42ef 32bd 28fa 5a3c
000003c0: 6cd9 b5bc f048 763d e0ea a2bd 8860 bd3d
000003d0: 80ab a33d d4fe fe3c 9867 5abc f09d a83d
000003e0: 9e6e a2bd df74 c9bd 1e9d 4c3d 78f6 91bd
000003f0: 97e3 d03d d65a af3d 623f 03bd d04b c0bd

fc_tactile1.bias f4 [48]
-0.073209874 0.07039765 0.08928776 -0.0160467 0.09571412 0.013634751 -0.023561077 -0.05659634
0.085511856 -0.10092816 0.070990235 0.048893802 -0.06082135 -0.075159654 -0.045192022 -0.0130958855
0.03666576 -0.061365463 -0.02909461 -0.012556948 0.09788055 -0.048958726 -0.05782298 0.027677368
0.10174414 0.091351725 0.080931306 0.011302872 0.09119673 -0.087309636 0.06545405 -0.07739601
0.063045286 -0.0791978 0.03276757 0.083107844 -0.0068365075 -0.026211457 -0.022210592 -0.04844843
-0.03239606 -0.043886323 -0.067073174 0.07435371 0.008735847 0.007546778 -0.06583302 0.0070166485
00000000: 0fef 95bd a52c 903d 80dc b63d 5e74 83bc
00000010: c405 c43d 4a64 5f3c 2903 c1bc 90d1 67bd
00000020: d720 af3d 6cb3 cebd 5463 913d de44 483d
00000030: cf1f 79bd 4eed 99bd 451b 39bd 2090 56bc
00000040: d62e 163d 5a5a 7bbd d257 eebc a8bb 4dbc
00000050: 9975 c83d f288 48bd cad7 6cbd a6bb e23c
00000060: 3b5f d03d 9d16 bb3d 50bf a53d ae2f 393c
00000070: 5ac5 ba3d 65cf b2bd c60c 863d cd81 9ebd
00000080: e31d 813d 7532 a2bd 4a37 063d 7234 aa3d
00000090: c804 e0bb 69b9 d6bc fdf2 b5bc dc71 46bd
000000a0: bbb1 04bd 25c2 33bd a95d 89bd c246 983d
000000b0: cc20 0f3c f64a f73b 76d3 86bd eaeb e53b

lstm2.weight_ih_l0 f4 [192, 48]
-0.053403437 -0.069937356 0.13117078 -0.020020396 -0.04499492 0.13944387 -0.12794174 -0.14415237
-0.024786184 0.096945845 -0.064337574 -0.13815384 -0.14152615 -0.041342404 0.065599166 0.026155226
0.08603669 -0.0046145096 -0.14061427 0.009091919 -0.08760435 -0.03178803 -0.12388637 -0.14162345
-0.010483382 0.010693025 -0.14040765 -0.123911515 -0.016545705 -0.12400909 -0.006475655 0.018325413
0.00041145613 -0.09056959 0.029490976 0.02638426 -0.036813993 0.10738253 0.047824785 0.035079848
0.01162167 0.018037602 0.116340876 -0.04715967 -0.13414864 -0.07743779 -0.07468627 -0.057773873
-0.022987876 -0.112330586 0.09106075 0.040548656 0.008512323 -0.07858783 0.05208216 -0.10749982
0.055226658 0.05525832 -0.13560674 0.048604198 0.06360381 0.09887945 0.11865748 0.0236539
0.019422749 0.12000659 -0.103121065 -0.11081954 -0.117034584 -0.076021925 0.1077714 -0.06384499
-0.037306163 0.12838674 0.05711764 -0.07282429 -0.074946284 0.11106237 -0.053790685 -0.09851641
0.012266186 -0.05785459 -0.11491669 0.083367504 0.07998647 -0.12104679 -0.05879779 -0.09845268
-0.07658977 0.050064366 -0.054709848 -0.12692334 0.063973315 -0.073279336 0.11366837 0.046643514
-0.07820903 -0.08294722 -0.0028076507 -0.11739127 -0.1341232 0.14361429 0.056843337 0.09020243
-0.036546607 -0.03050321 -0.0676817 -0.08475303 0.028324125 -0.123943225 0.017391605 -0.10801263
-0.12158252 0.11557213 0.12891868 -0.035917953 0.115700044 0.05349826 -0.12179754 0.020762593
0.025793962 0.11463024 -0.06694632 0.022670936 0.070381574 0.09852422 -0.08237364 -0.03036604
0.14309034 0.08819076 -0.058199216 -0.016793339 -0.061761416 -0.10129399 0.03276934 0.10381308
-0.08122818 -0.08517111 -0.11437117 -0.051767644 -0.030010952 -0.13604236 0.044878777 0.13908891
0.07423224 0.007374654 -0.0654495 -0.033782057 0.05134399 -0.10557151 0.06286059 0.11208818
0.08957586 0.039084546 -0.027792035 0.06535554 -0.0054095476 0.11009021 -0.039623108 0.041506257
-0.0010713035 -0.06231923 -0.109375164 0.13087352 -0.015520377 0.007889417 0.07343758 -0.034596417
-0.023715362 0.040201154 -0.019800017 -0.025765846 0.0076278457 -0.052348822 0.07117415 0.07024184
-0.13555627 0.057512924 0.07636552 0.060349997 -0.050797082 -0.071350515 0.11872881 0.07093096
-0.14260635 0.013783599 -0.015521427 -0.13673718 0.054650623 0.056487147 -0.06069992 -0.0703814
0.012612172 -0.012590475 0.074379355 0.0605106 0.07168861 -0.016721055 -0.018802717 -0.12513927
-0.042351145 -0.013889849 -0.13267906 -0.07096418 -0.0910512 -0.098226964 -0.10773505 -0.121854715
-0.0995369 -0.048570562 -0.045792215 0.0029010987 -0.0994225 -0.0400692 0.10302381 0.1290804
0.12857713 -0.028576853 0.07431323 -0.01530707 0.020499352 0.11133689 0.120244935 0.01661336
-0.042415462 0.1078519 0.0076467553 -0.10924261 -0.08575097 -0.07072066 -0.05172215 0.01489902
0.0035218876 0.11045285 0.07310806 0.011990695 -0.12979461 0.12649453 -0.106424 0.11111258
-0.047761086 -0.069866225 0.04140629 0.00822088 -0.089459114 -0.034185976 -0.1329577 -0.08032106
-0.13969018 -0.0909671 0.12229241 0.10733967 -0.035803687 0.059040487 -0.030854357 0.086833954
00000000: 90bd 5abd 513b 8fbd a251 063e d001 a4bc
00000010: 984c 38bd 60ca 0e3e 2903 03be ae9c 13be
00000020: 650c cbbc 8b8b c63d 6bc3 83bd 3378 0dbe
00000030: 3bec 10be a756 29bd db58 863d 7c43 d63c
00000040: 0134 b03d 5035 97bb 30fd 0fbe 46f6 143c
00000050: e969 b3bd 2a34 02bd 23b8 fdbd bd05 11be
00000060: 7ec2 2bbc cc31 2f3c 06c7 0fbe 52c5 fdbd
00000070: dc8a 87bc 7af8 fdbd bb31 d4bb 2d1f 963c
00000080: b5b8 d739 8d7c b9bd 0f97 f13c ce23 d83c
00000090: 45ca 16bd 5feb db3d ece3 433d e3af 0f3d
000000a0: d168 3e3c 98c3 933c 2044 ee3d 802a 41bd
000000b0: 435e 09be b497 9ebd 1df5 98bd 4ca4 6cbd
000000c0: 1251 bcbc 940d e6bd 0f7e ba3d 5916 263d
000000d0: 4577 0b3c a8f2 a0bd 1a54 553d de28 dcbd
000000e0: 5935 623d 8c56 623d 7edc 0abe 3215 473d
000000f0: b742 823d 4f81 ca3d b102 f33d d3c5 c13c
00000100: 751c 9f3c 04c6 f53d 2331 d3bd 5bf5 e2bd
00000110: d4af efbd 62b1 9bbd 40b7 dc3d 2ac1 82bd
00000120: 59ce 18bd d077 033e 30f4 693d e724 95bd
00000130: 707d 99bd ab74 e33d 9f53 5cbd f9c2 c9bd
00000140: 1df8 483c eff8 6cbd 7159 ebbd 95bc aa3d
00000150: f2cf a33d 61e7 f7bd f4d5 70bd 8fa1 c9bd
00000160: 19db 9cbd 4b10 4d3d 6f17 60bd 31f8 01be
00000170: 7104 833d 7a13 96bd f6ca e83d 450d 3f3d
00000180: 0e2c a0bd 3be0 a9bd 9000 38bb d66a f0bd
00000190: 9857 09be a00f 133e 8fd4 683d 0dbc b83d
000001a0: e5b1 15bd dee1 f9bc b49c 8abd ff92 adbd
000001b0: ff07 e83c f2d5 fdbd d778 8e3c ba35 ddbd
000001c0: 4200 f9bd 15b1 ec3d 4203 043e b41e 13bd
000001d0: 25f4 ec3d fe20 5b3d fd70 f9bd 5016 aa3c
000001e0: dc4d d33c 42c3 ea3d 271b 89bd 66b8 b93c
000001f0: 3724 903d 11c7 c93d 83b3 a8bd 34c2 f8bc
00000200: 4686 123e 5b9d b43d 4d62 6ebd 2f92 89bc
00000210: 8af9 7cbd 3973 cfbd 2539 063d f49b d43d
00000220: f65a a6bd 316e aebd 6f3b eabd 4f0a 54bd
00000230: 87d9 f5bc b04e 0bbe cfd2 373d 536d 0e3e
00000240: 1307 983d 15a7 f13b 630a 86bd 0e5f 0abd
00000250: 134e 523d e035 d8bd 0ebd 803d 7d8e e53d
00000260: 8c73 b73d 1e17 203d 1fac e3bc 20d9 853d
00000270: 9342 b1bb fa76 e13d d74b 22bd 7702 2a3d
00000280: fb6a 8cba 7342 7fbd 1600 e0bd b503 063e
00000290: 2e49 7ebc 9d42 013c 7166 963d f9b4 0dbd
000002a0: b846 c2bc f7a9 243d a533 a2bc e512 d3bc
000002b0: 02f3 f93b b86b 56bd c1c3 913d f4da 8f3d
000002c0: 43cf 0abe ac92 6b3d 8765 9c3d 8f31 773d
000002d0: 9a10 50bd 3820 92bd 1728 f33d 4044 913d
000002e0: 6607 12be 9bd4 613c 954d 7ebc d504 0cbe
000002f0: 55d9 5f3d 115f 673d 7ba0 78bd 2024 90bd
00000300: 49a3 4e3c 4848 4ebc 3454 983d f7d9 773d
00000310: 7ad1 923d 98fa 88bc 2808 9abc 8224 00be
00000320: 6578 2dbd 4092 63bc 05dd 07be ab55 91bd
00000330: 0d79 babd 382b c9bd 32a4 dcbd f78e f9bd
00000340: 01da cbbd edf1 46bd 9e90 3bbd 5c20 3e3b
00000350: 069e cbbd 9a1f 24bd 26fe d23d a72d 043e
00000360: b9a9 033e 011a eabc 8931 983d 81ca 7abc
00000370: 42ee a73c 9804 e43d fa42 f63d be18 883c
00000380: d6bb 2dbd 75e1 dc3d a291 fa3b 97ba dfbd
00000390: 349e afbd fed5 90bd 9bda 53bd 051b 743c
000003a0: 78cf 663b 1b35 e23d aeb9 953d 9f74 443c
000003b0: e1e8 04be c887 013e d3f4 d9bd fe8e e33d
000003c0: 21a1 43bd 0616 8fbd a499 293d dfb0 063c
000003d0: 5736 b7bd 9806 0cbd 1026 08be 5e7f a4bd
000003e0: f10a 0fbe f54c babd 7174 fa3d e7d4 db3d
000003f0: e3a6 12bd 70d4 713d 47c2 fcbc 00d6 b13d

lstm2.weight_hh_l0 f4 [192, 48]
-0.06944612 0.09169341 -0.10729034 0.122139394 -0.09260609 0.053995974 -0.0950592 -0.14019296
-0.104203686 0.11704248 0.02270528 0.0807611 -0.024172278 -0.054693107 -0.10877931 -0.100023106
-0.05775672 0.07827983 0.12510912 -0.029246405 0.11248408 -0.016169557 -0.0455978 -0.029334879
0.030910863 0.076567814 0.06161876 -0.08263042 0.07378135 0.121660486 -0.10612184 -0.075118385
-0.009696036 0.054748718 0.0541647 0.109187394 -0.11119197 0.026520243 0.10820579 -0.09919969
-0.0633423 -0.08179407 -0.11590246 -0.12350391 0.13563716 -0.11946852 -0.047661513 0.13940676
0.122600265 -0.07767286 -0.037855323 0.013473524 -0.10092816 -0.07465285 0.08841623 0.050440464
-0.011363127 0.013410944 -0.09311576 0.12606846 -0.13392186 0.060830485 0.13900362 -0.08757388
-0.1207896 0.12884907 0.13639136 0.0036680386 -0.008380074 -0.111673765 0.008876237 -0.013205018
0.10433024 0.024164 -0.13646562 -0.12181531 -0.07539701 0.09212329 -0.06659607 0.111792184
-0.05401564 -0.108897984 0.08420738 -0.14313148 0.040572003 -0.12873809 0.083656676 0.13678393
-0.049407754 -0.08016357 0.08735854 -0.04042544 0.08778579 0.12170423 0.09638597 -0.06261916
0.10369713 0.0011451188 -0.053504508 -0.046029694 -0.044567928 0.108108506 0.13707855 0.08688151
-0.05458775 0.07449703 0.054335937 0.04561667 -0.015206619 -0.04910052 -0.05784786 0.13380204
0.1331536 0.044013433 0.014030374 0.079043075 -0.003940192 0.12776236 -0.056626793 -0.03546324
-0.03686496 -0.13333628 -0.07481989 -0.011401566 0.045508582 0.05634511 -0.14321989 0.012523559
0.020456284 0.084484264 -0.1251437 0.12094642 0.10008082 0.04942983 0.088959716 0.06468902
-0.09674834 0.015327098 0.14391832 0.06665273 -0.13394584 0.072077334 -0.041052647 -0.0027549132
-0.11031531 -0.04626685 -0.034122504 0.11472823 -0.11039896 -0.110391356 -0.11087828 -0.123871624
0.0018364368 0.12724866 -0.13092673 0.07680304 0.026292654 0.031832952 -0.058791287 0.07566276
0.006819163 -0.08763957 0.080579005 0.08064672 -0.06772204 0.14110622 -0.041120198 0.12533297
0.0033084769 -0.023530101 0.13639116 -0.020574855 -0.063177295 -0.02023169 -0.1326006 0.11510966
-0.06147142 0.1213777 -0.07676881 -0.11979316 -0.033593733 -0.10487484 -0.033724673 -0.014250787
-0.03048134 -0.08314133 0.14283113 -0.08422085 -0.101031125 0.09445495 0.050903935 0.007751938
-0.06094465 0.017096637 -0.110993065 0.0049139527 -0.036237065 0.07719616 -0.10474508 -0.05054735
-0.10622394 0.034770392 -0.116053 0.025222555 -0.048738133 0.036395397 0.0018814831 -0.037803963
-0.054645512 -0.028411603 -0.061452046 -0.13073167 -0.06767002 -0.13625869 0.14099085 -0.11886061
0.024106858 -0.121281914 -0.07370851 0.055345193 -0.056700833 0.041170616 0.1205073 0.11622805
-0.073151454 -0.04469842 -0.08284957 0.026948957 -0.085173585 -0.06154319 -0.015381022 -0.12329723
-0.012474986 0.07702922 0.1077648 0.10422545 -0.077309914 -0.11980433 0.017570568 -0.10837863
0.059305605 -0.09082347 0.12948808 0.088184 -0.13122582 0.021645503 0.13806055 0.028800743
-0.07289814 -0.05407834 -0.11476234 -0.11501397 -0.08101152 0.03836415 0.06869341 0.09996116
00000000: c439 8ebd c1c9 bb3d 0abb dbbd 3824 fa3d
00000010: 43a8 bdbd e22a 5d3d 66ae c2bd be8e 0fbe
00000020: be68 d5bd f8b3 ef3d 6c00 ba3c 1366 a53d
00000030: f104 c6bc e105 60bd b0c7 debd ead8 ccbd
00000040: 4f92 6cbd 2d51 a03d 9b1c 003e 2896 efbc
00000050: 0e5e e63d 0576 84bc c2c4 3abd b34f f0bc
00000060: c738 fd3c 96cf 9c3d f463 7c3d 233a a9bd
00000070: ad1a 973d 2229 f93d 6856 d9bd abd7 99bd
00000080: 1fdc 1ebc 3140 603d cedb 5d3d a49d df3d
00000090: 9eb8 e3bd fb40 d93c ff9a dd3d 3529 cbbd
000000a0: 9cb9 81bd a683 a7bd 455e edbd 9eef fcbd
000000b0: 78e4 0a3e e9ab f4bd b838 43bd a5c0 0e3e
000000c0: d915 fb3d f312 9fbd 2f0e 1bbd 0ec0 5c3c
000000d0: 6cb3 cebd 98e3 98bd 9213 b53d a99a 4e3d
000000e0: 692c 3abc 93b9 5b3c 7ab3 bebd 1718 013e
000000f0: d022 09be 6329 793d f756 0e3e ef59 b3bd
00000100: 8a60 f7bd 03f1 033e 2daa 0b3e 7a63 703b
00000110: 944c 09bc 37b5 e4bd a36d 113c dc59 58bc
00000120: 18ab d53d 95f3 c53c a5bd 0bbe 4e7a f9bd
00000130: bf69 9abd 23ab bc3d 8563 88bd 4df3 e43d
00000140: 813f 5dbd e805 dfbd eb74 ac3d 0f91 12be
00000150: d42e 263d ebd3 03be 3154 ab3d 1611 0c3e
00000160: c95f 4abd cc2c a4bd 09e9 b23d 2595 25bd
00000170: 09c9 b33d 1140 f93d 0266 c53d 793e 80bd
00000180: 295f d43d d017 963a 8b27 5bbd a289 3cbd
00000190: dc8c 36bd fe67 dd3d 525e 0c3e efee b13d
000001a0: 6897 5fbd e691 983d 5c8f 5e3d 8cd8 3a3d
000001b0: 2f25 79bc a01d 49bd e1f1 6cbd 6703 093e
000001c0: 6b59 083e 6e47 343d a7df 653c 56e1 a13d
000001d0: ba1c 81bb 23d4 023e 7ff1 67bd e741 11bd
000001e0: b6ff 16bd 4e89 08be 2c3b 99bd a2cd 3abc
000001f0: 3567 3a3d 21ca 663d 3ca8 12be 9d2f 4d3c
00000200: f093 a73c 1606 ad3d ac25 00be c2b2 f73d
00000210: 2cf7 cc3d ef76 4a3d 8330 b63d ad7b 843d
00000220: fe23 c6bd 821e 7b3c 535f 133e 3a81 883d
00000230: 1929 09be 489d 933d d226 28bd c68b 34bb
00000240: feec e1bd 4f82 3dbd 0ac4 0bbd a2f6 ea3d
00000250: da18 e2bd dd14 e2bd 2714 e3bd 68b0 fdbd
00000260: 98b4 f03a 794d 023e a811 06be ea4a 9d3d
00000270: b163 d73c 4563 023d 22cf 70bd 14f5 9a3d
00000280: 4973 df3b 607c b3bd 9b06 a53d 1c2a a53d
00000290: dab1 8abd 267e 103e a76d 28bd 4957 003e
000002a0: 08d3 583b 33c2 c0bc 20aa 0b3e 998c a8bc
000002b0: 1963 81bd eebc a5bc 74c8 07be 9dbe eb3d
000002c0: 75c9 7bbd df94 f83d f738 9dbd 1e56 f5bd
000002d0: 9599 09bd 9fc8 d6bd e222 0abd 227c 69bc
000002e0: 01b4 f9bc 0046 aabd 5342 123e fb7b acbd
000002f0: 68e9 cebd 9971 c13d a580 503d f803 fe3b
00000300: 19a1 79bd 3f0e 8c3c 5550 e3bd 3905 a13b
00000310: 516d 14bd 0519 9e3d 9784 d6bd bd0a 4fbd
00000320: f08b d9bd 666b 0e3d 32ad edbd 889f ce3c
00000330: a3a1 47bd 5713 153d 199c f63a 54d8 1abd
00000340: f9d3 5fbd 73bf e8bc 24b5 7bbd 86de 05be
00000350: 9496 8abd 6687 0bbe e85f 103e 316d f3bd
00000360: bf7b c53c a762 f8bd 7df4 96bd a4b1 623d
00000370: 223f 68bd 85a2 283d 88cc f63d f908 ee3d
00000380: 6ed0 95bd b115 37bd 09ad a9bd 0fc4 dc3c
00000390: 7d6f aebd b614 7cbd af00 7cbc 4283 fcbd
000003a0: e263 4cbc 7fc1 9d3d cbb3 dc3d 2774 d53d
000003b0: a954 9ebd f95b f5bd 27f0 8f3c 9df5 ddbd
000003c0: 6fea 723d a801 babd 8698 043e d099 b43d
000003d0: 1060 06be e951 b13c bf5f 0d3e 89ef eb3c
000003e0: 9f4b 95bd 4081 5dbd 8508 ebbd 728c ebbd
000003f0: 5ee9 a5bd ba23 1d3d 21af 8c3d 70b8 cc3d

lstm2.bias_ih_l0 f4 [192]
0.026210133 -0.09809633 -0.008558539 -0.10665432 -0.11931646 0.10399564 -0.07046139 0.07267274
-0.08244231 -0.020333964 -0.1143692 -0.12243782 -0.004920336 0.11470013 0.050905347 0.060384598
-0.11705876 0.1288855 0.10122867 -0.10802462 0.09375394 0.045516998 -0.118887596 -0.114537634
0.12351234 0.09671127 0.0036204457 0.0070123565 0.091659755 0.036868434 0.025905615 -0.057783768
0.018415127 -0.07285 0.03422328 -0.05735698 -0.08431363 -0.08391614 0.018968122 0.050782304
-0.1056872 -0.121206634 0.121079035 -0.12464588 0.062918045 0.009863264 0.040452126 0.11310771
0.11818051 0.08440735 0.12753856 -0.08817856 -0.038700294 -0.10016499 -0.03538822 -0.069452256
0.021707946 -0.0010755535 -0.121877305 -0.04807443 0.02500756 -0.008368185 -0.13074832 0.05280839
0.0695839 0.03888693 0.026102867 0.117654204 -0.05966351 -0.1236799 0.12041353 -0.04323132
-0.08364559 0.143554 0.105104834 0.0043574637 -0.031544384 0.015735302 0.10430099 0.06283305
0.06876474 -0.0024469534 0.07101958 0.086078145 0.017569881 0.0122584775 0.08089825 0.10533306
0.043534804 -0.10314066 -0.12322157 -0.14416476 0.1330775 0.13983601 0.09372617 0.1036366
-0.026754955 -0.06221871 -0.009268319 -0.03452995 -0.006510412 0.028397046 -0.12164256 0.029507786
0.027596725 0.12066499 -0.049592517 -0.03931783 -0.025448097 0.08406961 -0.087514184 0.042583328
0.08356844 0.14421366 -0.018090649 -0.07931561 0.052334026 -0.0638091 0.13998094 0.05246187
0.117852546 -0.06261687 -0.059015796 -0.06227465 -0.0361266 -0.048713565 -0.1352331 0.05777644
0.14406128 0.065747865 0.026603624 -0.11096741 -0.121951066 -0.06033833 0.058761917 -0.13747227
-0.04820145 -0.08615423 -0.0662646 -0.04057928 -0.12344983 0.019544898 0.06463973 0.04585763
-0.10797066 0.12500317 -0.057615474 0.013228849 -0.10408697 0.063341826 0.050210018 0.10893384
-0.027423285 -0.11009916 -0.051077377 0.05884005 0.13090025 0.04651087 0.10000973 0.05990129
-0.029343449 0.013887957 0.11002918 0.10931402 -0.058276474 -0.1241152 0.08617123 -0.048034497
0.07491437 0.05040423 0.13001214 -0.072770506 -0.07562162 0.05349907 -0.033074908 -0.10780187
0.06334744 -0.08044655 -0.05727747 -0.015834186 0.0534942 -0.14060892 -0.10541734 -0.0782639
-0.062409513 -0.10722798 -0.13651496 -0.10811333 -0.015318753 0.03054478 0.08089677 0.08256402
00000000: a2b6 d63c bbe6 c8bd 1d39 0cbc 956d dabd
00000010: 305c f4bd abfb d43d 104e 90bd 72d5 943d
00000020: 84d7 a8bd 6a93 a6bc 663a eabd aec0 fabd
00000030: c53a a1bb e7e7 ea3d 2082 503d d755 773d
00000040: 81bc efbd 8ffa 033e fa50 cf3d 033c ddbd
00000050: 1102 c03d 0870 3a3d 577b f3bd b592 eabd
00000060: 0af4 fc3d 8f10 c63d 0045 6d3b e9c7 e53b
00000070: 1cb8 bb3d 5b03 173d 0338 d43c acae 6cbd
00000080: 52db 963c 6132 95bd b62d 0c3d 27ef 6abd
00000090: a0ac acbd 3adc abbd 0963 9b3c 1b01 503d
000000a0: 8872 d8bd 2f3b f8bd 49f8 f73d 5746 ffbd
000000b0: 2ddb 803d 8799 213c 21b1 253d 04a5 e73d
000000c0: a008 f23d c3dd ac3d 7899 023e f696 b4bd
000000d0: 3384 1ebd 4d23 cdbd 3df3 10bd fc3c 8ebd
000000e0: ddd4 b13c 96f9 8cba cf9a f9bd b2e9 44bd
000000f0: a8dc cc3c b61a 09bc e3e2 05be 9c4d 583d
00000100: 0182 8e3d e747 1f3d aed5 d53c b0f4 f03d
00000110: ba61 74bd e34b fdbd 5e9b f63d 5313 31bd
00000120: 614e abbd d2ff 123e 3441 d73d 0ec9 8e3b
00000130: af34 01bd 52e7 803c c29b d53d 9dae 803d
00000140: 87d4 8c3d 115d 20bb b772 913d bd49 b03d
00000150: b6ee 8f3c c8d7 483c fbad a53d dcb8 d73d
00000160: 8d51 323d 693b d3bd 975b fcbd ed9f 13be
00000170: 7845 083e 2c31 0f3e 82f3 bf3d 6d3f d43d
00000180: 352d dbbc 0cd9 7ebd 26da 17bc 476f 0dbd
00000190: 4b55 d5bb eca0 e83c bc1f f9bd 50ba f13c
000001a0: 8712 e23c 351f f73d 8621 4bbd bc0b 21bd
000001b0: 8778 d0bc b02c ac3d a33a b3bd db6b 2e3d
000001c0: ee25 ab3d bfac 133e d732 94bc 3970 a2bd
000001d0: 345c 563d 58ae 82bd 2a57 0f3e 42e2 563d
000001e0: ad5c f13d 463d 80bd 8cba 71bd b413 7fbd
000001f0: 7cf9 13bd e087 47bd 8c7a 0abe fda6 6c3d
00000200: cd84 133e d1a6 863d d8ef d93c e242 e3bd
00000210: 7bc1 f9bd 5325 77bd 56b0 703d 88c5 0cbe
00000220: e26e 45bd a171 b0bd bcb5 87bd 7636 26bd
00000230: 44d3 fcbd 9f1c a03c d661 843d 36d5 3b3d
00000240: b91f ddbd d500 003e 34fe 6bbd d0bd 583c
00000250: 8d2b d5bd 5cb9 813d 05a9 4d3d b518 df3d
00000260: cca6 e0bc ab7b e1bd 8336 51bd 4402 713d
00000270: b70a 063e 2f82 3e3d e7d1 cc3d 0e5b 753d
00000280: ac61 f0bc 508a 633c fb56 e13d 07e0 df3d
00000290: 50b3 6ebd 1c30 febd 8b7a b03d d2bf 44bd
000002a0: b56c 993d aa74 4e3d e721 053e b408 95bd
000002b0: 82df 9abd d721 5b3d 8e79 07bd 3ac7 dcbd
000002c0: 4dbc 813d 29c1 a4bd c89b 6abd b2b6 81bc
000002d0: bc1c 5b3d c9fb 0fbe 0ce5 d7bd d348 a0bd
000002e0: 1ea1 7fbd 589a dbbd 94ca 0bbe 866a ddbd
000002f0: 82fb 7abc 0c39 fa3c 35ad a53d 5317 a93d
