src/simple_lstm_001.pt (torch, 638338 bytes, 14 tensors)

lstm1.weight_ih_l0 f4 [384, 96]
00000000: 66ce 9f3d a97d ad3d 9cdf c3bc d102 c03d
00000010: dc30 b7bc 37b7 a83c 2687 4bbd e682 753d
00000020: 4b43 b83d 6358 99bd 9fae b53d 857b 9c3c
00000030: 9b6d 9a3d 0977 623c b293 493d f518 6cbc
00000040: 0a22 a13d f229 773c 2229 43bd 5b1e d53c
00000050: f69b 40bd 171a 44bc 00cb 29bd eea8 8a3d
00000060: 23ff a4bd 41b9 40bd 6717 ecbc 165c 7bbd
00000070: 78d3 1d3c a272 cebd 4cc5 bc3d fb8e b1bd
00000080: 205f a13d 4d24 8b3c d4bd 07bd 742a 813d
00000090: 404e 823c 0fe2 a83d 81cd 363c 30d7 03bd
000000a0: f8a4 e03c 29bb e2bc 1cf0 2f3d d89e ba3d
000000b0: d8a7 713d 23c2 36bd c652 713d 5099 953c
000000c0: 6d4c 543d 23cd 7ebd ede9 cebd 3e84 21bd
000000d0: 5553 a0bd f982 ab3d 23d2 f03c 1129 2d3d
000000e0: 3936 043d dcb6 e8ba 4f95 a33d 8783 94bd
000000f0: f192 d23b acaa 8ebd c8e7 003d bdf7 0fbd
00000100: 9f18 003d 5831 aebc b15c ad3d dec6 77bd
00000110: 6c52 79bd 4656 79bd 1d01 bc3d 7c50 0b3d
00000120: f621 c93d 7880 acbd 3753 cfbd 3988 a3bd
00000130: 8a9b 8cbd 5553 293d 39b1 153d b3ae ad3d
00000140: c3e3 57bd 587e 8ebd 64ce 5d3d e7f9 28bd
00000150: e4b8 7d3d c167 c6bc 4424 6f3d 7f67 a2bd
00000160: 8af7 52bd a9e7 fe3c 9bc1 b03c 4a2b d5bc
00000170: 432f 793d 8a18 8e3d f893 97bd 7e2e 5fbd
00000180: 0065 bf3d f90f 0dbd 4a34 14bd ea3f cabd
00000190: 1467 6fbd e6db d03c 8eb7 5cbc 1aba 97bd
000001a0: 4ee5 1c3b a3c7 8ebd a455 b1bd d433 66bd
000001b0: 88f0 b6bd ce17 85bd fef0 d03d bdea 9d3c
000001c0: 34d3 003d ddf3 c2bd ea47 89bd 2e26 0bbd
000001d0: a0bd 823c 85ec b7bd f71f 34bd 6b45 7abd
000001e0: 324a 9439 6e8e 1bbd 2dc0 e7bb eaa3 8dbd
000001f0: f478 8fbd 92e3 73bd 9e18 0fbd 5cfa a4bd
00000200: 7542 af3d 2eef a5bc c3d7 b33d 7741 023d
00000210: 0a00 b1bd c0a6 903d e90b e6bc 7f3f 20bd
00000220: 0281 adbd 75cd cfbd 0837 ef3c a8a3 b6bc
00000230: 4dc1 223d a389 abbd 532f 9b3d 286f 99bd
00000240: f35e 90bc 68a2 ae3c 30d1 573d 1dbf a83d
00000250: 5c69 be3d 34bd a5bd c86a d23c 03d0 33bd
00000260: ff3e 37bc a673 9cbd f963 be3d a269 99bd
00000270: e46c 5f3d 03eb 123d bcd8 073d df03 62bd
00000280: edfd bd3d 4fbb b73c 281c 573c e033 b8bd
00000290: b37d 2f3d b9dc 7abc 6484 3fbd 2a8a b33d
000002a0: e467 ba3c 8e4b 67bd e996 53bd 7ab6 9fbb
000002b0: bd6b 693d 61a6 d5bc d686 6ebd 2f28 0fbd
000002c0: eb27 9cbd c016 153d d5ca a13d 66c8 c4bd
000002d0: dd2e c23c 93f5 573d ae9b 973c 67e0 14bd
000002e0: 2b32 5a3d 56b0 5b3d a251 1c3d 5beb 92bc
000002f0: fb65 ddbc 53e4 323c fdb2 93bc 0d28 f9bc
00000300: e99b 853d 67a2 b33d ba8a 25bc d032 bbbc
00000310: 4435 c33a bbaf c7bb 8e01 c93c 1e4d ea3c
00000320: c0d8 bdbd 5d46 1abd 4806 b03d 1dda 223d
00000330: 4257 a6bb e10a 7cbd 49c3 7fbd 6a3c bbbd
00000340: 7344 08bd 0c2d 0d3d 1647 853d c702 413d
00000350: c7c3 b8bd b865 7bbd 07f3 83bc cc32 ca3d
00000360: e4e4 713c 0486 d8bc bef3 2c3d e239 1fbd
00000370: 9a4a 87bd 3690 983d 1d16 3ebd d79b a7bc
00000380: e6ef cfbd 9fe4 8b3d f85c 9e3d 305b 183d
00000390: 17bf 91bd 144b cebd a2c3 a9bd 5dde 9b3d
000003a0: d8b4 483d d6e4 af3d 7900 5b3d c59b d33c
000003b0: 6000 83ba 9ef6 9ebd d015 b3bd 6f82 c3bd
000003c0: da21 2b3d 513f 4dbd 0a44 a8bc 7c96 70bd
000003d0: 135b 98bc 261e 93bd 3994 88bd a4ab 0a3d
000003e0: d27b f8bc fc09 813d e71c 06bd 2055 99bd
000003f0: ef84 93bc 98a5 4abd a4cb ffbc 36fd c6bd
0.07803039 0.084712334 -0.023910336 0.09375537 -0.022362165 0.020595176 -0.049689434 0.059939288
0.0899721 -0.074875616 0.08871197 0.019101867 0.07540437 0.0138223255 0.04921312 -0.014410247
0.078678206 0.015085684 -0.04764665 0.026015451 -0.047023736 -0.011969111 -0.04145336 0.06770502
-0.08056476 -0.047051672 -0.028819753 -0.061367117 0.009632938 -0.10080458 0.09217319 -0.086698495
0.07879472 0.016985083 -0.03314002 0.063069254 0.015906453 0.08246242 0.011157394 -0.03218764
0.027422413 -0.027677136 0.042953596 0.09112328 0.05899796 -0.044618737 0.05891683 0.018261582
0.051830698 -0.062207352 -0.101032116 -0.039432757 -0.07828394 0.083745904 0.029397076 0.042275492
0.032278273 -0.0017754692 0.07987463 -0.07251649 0.006426208 -0.06966147 0.031471044 -0.03514837
0.03127348 -0.021263763 0.08464945 -0.06049239 -0.06086962 -0.060873292 0.091799 0.034012303
0.09820931 -0.08422941 -0.10123294 -0.07984967 -0.06865604 0.041339237 0.036545966 0.08480587
-0.052707445 -0.06957692 0.054151908 -0.04125395 0.061943904 -0.024219396 0.058384195 -0.079298966
-0.051505603 0.031116324 0.021576693 -0.026021618 0.060836088 0.06938274 -0.0740127 -0.054487698
0.09345436 -0.03443906 -0.03618268 -0.09875472 -0.058447912 0.02549548 -0.013471497 -0.07408543
0.0023940387 -0.069716714 -0.08658913 -0.05620177 -0.089325964 -0.06498681 0.102022156 0.019276971
0.03145142 -0.095191695 -0.0670317 -0.033971958 0.01595956 -0.089806594 -0.043975797 -0.06110136
0.0002828404 -0.03797763 -0.0070724697 -0.0691603 -0.07005492 -0.0595432 -0.034935586 -0.08055565
0.085575975 -0.020255651 0.08781388 0.031800713 -0.086425856 0.07063055 -0.028081851 -0.039123055
-0.08471872 -0.1014661 0.029201046 -0.022294834 0.039735127 -0.083758615 0.07577386 -0.074919045
-0.0176234 0.021317676 0.05268973 0.08239577 0.092974395 -0.08092728 0.025685683 -0.043899547
-0.011184453 -0.07639246 0.09296412 -0.07490851 0.054547206 0.035868656 0.03316568 -0.055179473
0.09276948 0.022428183 0.013129272 -0.08994269 0.042844485 -0.015311413 -0.046757117 0.08766587
0.022754617 -0.05646854 -0.05165759 -0.004874048 0.056987513 -0.026080312 -0.05823406 -0.03495043
-0.07624801 0.03639865 0.07900015 -0.096085355 0.023703987 0.052724432 0.018506851 -0.03634682
0.0532705 0.053634964 0.03816379 -0.017934492 -0.027026167 0.010918695 -0.018029684 -0.030414606
0.06523878 0.0877121 -0.010103876 -0.022851378 0.0014893194 -0.0060939468 0.024536874 0.028601225
-0.092698574 -0.03766476 0.08594948 0.03975879 -0.00507632 -0.061533812 -0.062442098 -0.091423824
-0.033268403 0.03446679 0.06507699 0.04712179 -0.090217166 -0.061376303 -0.016107095 0.0987297
0.014764044 -0.026431091 0.04222464 -0.03887356 -0.06606026 0.07449381 -0.046407808 -0.020460052
-0.10153179 0.068307154 0.07732576 0.03719634 -0.071165256 -0.10072914 -0.08289267 0.07610772
0.04900059 0.08588569 0.053467248 0.025831113 -0.0009994619 -0.07761882 -0.08744395 -0.095463626
0.04178033 -0.05010921 -0.020540256 -0.058737263 -0.018598115 -0.07183485 -0.06668896 0.033855096
-0.03033248 0.063007325 -0.032742407 -0.074869394 -0.018007724 -0.04947433 -0.031225033 -0.09716265

lstm1.weight_hh_l0 f4 [384, 96]
00000000: 98e6 17bd ab95 a0bd f0c4 cf3d ff10 b5bd
00000010: d216 bcbc 64ec 163d 1770 edba e180 cbbd
00000020: cd7d c63c fc02 253d 374d 10bd ddf3 c53d
00000030: e0f5 a83d 7e16 6d3d c946 8cbd 83f1 88bd
00000040: e876 ae3d 39bb 7e3d fabe b9bc cd38 bf3d
00000050: 014e c13d 1f96 9fbb 8a3c c13d 16b8 ccbc
00000060: 9ca8 3f3d 8cea b13d 0682 f73c 0bee 8f3a
00000070: f90f 64bd a2b0 bbbc 7486 8ebd a755 a6bd
00000080: 6e4d 71bd c771 a33a 5fbd 81bd 468a 79bd
00000090: 6caa 5ebd 33c6 88bd c3d8 a4bd 2b8c 3c3c
000000a0: 6ca5 ab3d 11b9 c33d 87fd c93d fc26 aebc
000000b0: a7ea ccbd bb44 02bd d8cb adbc 0910 45bd
000000c0: c12e 213d f171 ca3d 3c92 22bd ca9a c53d
000000d0: dfe8 d0bd 52d6 51bd 0557 903d b02e f83c
000000e0: 709f 803d f3b0 94bd f1a9 41bd 0c28 a9bc
000000f0: 21c3 c23d cb4a cfbd 1bf0 033d 495d 8d3d
00000100: 20df 4b3d 8a64 783d 717d eabb cb19 ae3c
00000110: 3662 6db9 fe52 5fbd 8d4d 833d cfcb ccbd
00000120: 4203 67bc 2dd8 ad3d 7dc6 9abd c203 18bd
00000130: 52c3 c0bb cfa4 ce3d ee67 a73d 735b 6c3d
00000140: d629 1a3d bb30 53bc 7b15 b63d 1df0 1bbd
00000150: 7e9a 613d e1b6 81bd af63 393a 7d1b 74bd
00000160: 0dff b93d 29b4 41bd 2091 bcbd 54c4 893d
00000170: 82cc 803c 47af c23d 62ce 5fbc 5e20 943d
00000180: 3f25 9d3c aa49 a83d 946c c53c f350 df3c
00000190: 2bcd 5c3d 915f 373d 72bf a43d 2da9 38bd
000001a0: 853c 4a3c 82e1 b3bd 92d4 31bd 919f ccbb
000001b0: 9b03 0bbd 4baa 753d 4c4f 41bd 5a23 57bc
000001c0: e904 99bd 555e cbbd 763f 8ebd 2cfa bcbd
000001d0: afe9 963d 1017 b8bc 28b1 983d 69a8 193c
000001e0: 87cf 97bd 50aa 8dbd 3e0a ce3c c4a7 bdbd
000001f0: 882d 1cbd 787e f23c d897 ed3c 28ed fa3c
00000200: efa3 0fbd 60d6 62bd ea7b 003d 00be 3b3c
00000210: 1b98 41bd 343b 393d 9222 e5bc 7958 c33d
00000220: c16c c6bc 5be5 4abd b8b9 9ebc 2a64 55bd
00000230: 3517 3f3d f6b8 493b d568 7b3d 74d3 adbd
00000240: 47e5 0b3d a8a4 c33d c00d aebd e028 e53c
00000250: ca09 03bd 7aaa 39bd 48d1 a1bd 3bac 09bc
00000260: b421 933c ada0 a33d 3715 8ebd 0f4a 373d
00000270: 3310 373d 9501 c0bd d0bb 42bd aaf4 b33d
00000280: 7e8a a73c 4c67 b0bd 86fd b2bd fc0e 78bd
00000290: 2e13 95bc 56c5 95bd ab1f b1bd 00c6 8b3d
000002a0: d703 d73c 56e3 703c e4f8 7fbd ec6c 58bd
000002b0: 9b06 133c 4b45 9e3d 75ad 6c3d 2d9b a5bd
000002c0: 8c3b 8bbd 80e5 b2bd 28de b53d 977e 6f3d
000002d0: a51f bc3d a13c 83bd a96a ac3c ea06 2ebd
000002e0: 1025 5fbd 851f 42bd 1746 c5bd 9a24 cdbc
000002f0: 38ae 923c c7b5 f53c b037 a23d 838f 5fbc
00000300: e3ae 973d a29f 81bd 30eb 8cbd ea08 573c
00000310: ba68 fcbc 405a 8a3d 7d48 9b3c a9b5 9fbd
00000320: 5b9c 013d dcf4 3b3c 993e 463d 64be b9bd
00000330: 76c5 66bc 32ce b33d 1a4a 953d 1a99 ccbd
00000340: 5e50 bbbd ea34 9dbb 27f9 c93d 930b a838
00000350: da45 ca3d f2ce a2bd 3423 8abd 08b1 3a3d
00000360: 5c78 043d 0fd9 97bd c1a9 643c e859 b13d
00000370: 082b c53c 5a73 46bd d7aa 003d 2c73 afbd
00000380: d3e7 3e3d 3f2d ab3c 8175 be3c b3a3 5ebd
00000390: 67fb d23c bf29 88bc 8db7 c0bd b0bc b4bd
000003a0: 7de4 d03d d106 503d d37b 8f3d 7f2b 8e3d
000003b0: d418 6c3d 34d0 2e3d 58ba 9abd 63b2 babd
000003c0: f3fb d83c 3b97 5f3d 3fe4 d7ba a8e4 523d
000003d0: bf26 cd3c cc67 1bbd 9f23 e33a 995f b93a
000003e0: d5f3 07bc 3647 c33d 7d44 a9bd b557 cebd
000003f0: e94e 0c3b 690d 163c a23a 82bd a1d1 2b3d
-0.037085146 -0.07841047 0.10144985 -0.088411324 -0.0229601 0.036846533 -0.001811507 -0.09936691
0.024229908 0.04028605 -0.035229888 0.09665654 0.08250022 0.05788278 -0.06849439 -0.0668669
0.08518773 0.06219027 -0.022674073 0.09337006 0.09438706 -0.0048701908 0.09435375 -0.024990123
0.046791658 0.086873144 0.030213367 0.0010980977 -0.055679295 -0.022911374 -0.06959239 -0.08121806
-0.058911733 0.0012469821 -0.06334948 -0.060922883 -0.054361746 -0.066784285 -0.080491565 0.011508028
0.08381161 0.09556783 0.0986281 -0.021258824 -0.10005694 -0.031803828 -0.021215364 -0.048110995
0.03935123 0.09885014 -0.03969024 0.09648664 -0.10200667 -0.051229782 0.07047848 0.0302957
0.0628041 -0.07260313 -0.04728121 -0.020648979 0.09509874 -0.101216875 0.032211404 0.06902558
0.049773335 0.060642757 -0.007156067 0.021252533 -0.00022638668 -0.054522507 0.06411276 -0.09999811
-0.014099898 0.08488498 -0.0755739 -0.03711296 -0.005882659 0.100900285 0.0817412 0.0577044
0.037637554 -0.012890036 0.08890816 -0.038070787 0.055078976 -0.063337095 0.0007072044 -0.059596527
0.0908185 -0.047290955 -0.09207368 0.067269 0.015722517 0.09506088 -0.013660045 0.07232736
0.0191828 0.08217175 0.024099626 0.02726028 0.0539066 0.044768874 0.08044328 -0.045083214
0.012343531 -0.087832466 -0.043415613 -0.0062446077 -0.033938985 0.059976857 -0.047194764 -0.013130987
-0.0747164 -0.09930102 -0.06945698 -0.09227404 0.0736879 -0.022471935 0.07455665 0.009378531
-0.074126296 -0.0691725 0.025151368 -0.092605144 -0.03812936 0.02960132 0.029003069 0.030630663
-0.03506845 -0.055380225 0.031368174 0.011458874 -0.0472642 0.045222476 -0.027970586 0.09538359
-0.02422178 -0.049535137 -0.019375667 -0.052097477 0.04665299 0.0030780411 0.061379272 -0.08487597
0.034154203 0.0955289 -0.08498716 0.027973592 -0.031991757 -0.045328595 -0.07901245 -0.008402879
0.017960407 0.07989631 -0.0693764 0.044748362 0.044693183 -0.09375302 -0.047542393 0.087869
0.02045178 -0.08613452 -0.08739762 -0.060561165 -0.018197622 -0.073130295 -0.08648618 0.06824875
0.026246948 0.014702639 -0.06249322 -0.05283825 0.008973743 0.0772806 0.05778261 -0.08086238
-0.06798467 -0.0873518 0.088802636 0.058470335 0.09185723 -0.064080484 0.021046953 -0.042487063
-0.054478705 -0.04739334 -0.09632509 -0.025041867 0.01790534 0.029993905 0.07920778 -0.013645056
0.07406404 -0.06329276 -0.06880796 0.013124684 -0.030811656 0.06755495 0.018955464 -0.07798321
0.031643253 0.011471953 0.04839954 -0.09069517 -0.014085164 0.08779563 0.072895244 -0.09990139
-0.09146188 -0.0047975676 0.09861975 8.01302e-05 0.098766044 -0.07949628 -0.06744996 0.045578986
0.032341346 -0.074144475 0.013956488 0.086597264 0.02406837 -0.04844985 0.031412926 -0.08566889
0.046607804 0.020895598 0.02324939 -0.054355334 0.025754644 -0.016621469 -0.094100095 -0.08825052
0.10199831 0.05078775 0.070060395 0.0694189 0.057640865 0.042679027 -0.075550735 -0.09116056
0.026487326 0.054587584 -0.0016471221 0.051487595 0.02504289 -0.037940785 0.0017329341 0.001414287
-0.00829788 0.09535067 -0.08265016 -0.100753225 0.0021409339 0.009158471 -0.063588396 0.041947965

lstm1.bias_ih_l0 f4 [384]
00000000: cda0 36bc 52a4 a93d b53c e23c 3606 bebd
00000010: 4e91 afbc 7a2a cd3d 67a9 b7bd 5e11 b03b
00000020: 0d3a be3d 9c50 223d 1833 b7bd b1a6 933d
00000030: 6fc9 5f3c cd39 c8bd a51a bd3c 5a33 afbd
00000040: 6cad ab3d 541f cb3c e256 5fbd 3c37 ce3d
00000050: 2453 533d 0d53 293d ca6a 543d c0c3 73bd
00000060: 668e 983d e209 c6bd b82b 4e3c e233 cabd
00000070: ce68 f2bc 4af3 65bd d557 f3bc 34bf 16bc
00000080: a951 a3bd 7bdd be3c 0474 d33c 138c 943d
00000090: ce9b ab3b 3985 bf3d 1a07 93bd deaa 63bd
000000a0: bc3a c1bb b8f8 943c 16ae 14bd 15d9 8f3d
000000b0: 34b8 a0bd e577 dc3c 2998 a33d 743c c93d
000000c0: 9c01 913b 7321 45bd e660 9e3d 0a7f 58bd
000000d0: fddb adbd 3a8d d0bd 1644 85ba 0cb3 303d
000000e0: d404 973d 36fd afbd 66df d83c 1159 153d
000000f0: 9331 01bd 7324 c63d 6ec3 0f3c 070a 99bd
00000100: a9ea f83b 82b1 783a f4cc a4bd 7dea a03d
00000110: 2fd4 a33d 8966 56bb 35a7 07bd 6b14 d0bd
00000120: edde f83c c471 97bd 89f4 ef3c e8ff 69ba
00000130: 96e6 c53d a22f a63c 7b40 913c 02d6 b33c
00000140: 8ec4 cf3d 2682 543d 3d79 9bbd 8abc b43c
00000150: 979a 95bd 1e73 b33d 243c 31bd a91f 7dbd
00000160: 9400 1e3d a91d 7b3d 5457 bfbd ed32 bfbd
00000170: 75c2 d0bb c683 7b3d e9f3 bb3d d6eb ad3d
00000180: 99db 83bd b8a5 413d aa87 693d 5512 97bc
00000190: 4340 d63c 1b41 afbd 6ca2 c6bd c100 24bd
000001a0: 0b0b 423d 0236 9abd 8e8d 2bbd c0e5 4fbc
000001b0: 6047 b3bd 9130 9e3d f736 a7bd c3c2 b43d
000001c0: 0aa5 3abd c0ee 64bc c7fc cabd e456 383d
000001d0: 9dc5 ccbd 8a8f 163b 4fe7 98bd 3b9e 453d
000001e0: 3d77 7ebd 5f40 13bd 3a4b 873c d2a2 d0bc
000001f0: ca28 e8ba 496e c83d 5733 7ebc b199 523d
00000200: 8c5c 1fbd 4b3d ab3b cec1 b23d 9080 8c3c
00000210: 7de5 88bd 4561 c23d f8dd 863a efda a3bd
00000220: 47a3 2cbd ba33 c43d 121d 98bc 15b2 c13d
00000230: 88b4 45bc 341e 893d 0d43 b8bb dfef c23d
00000240: ba3b c6bd 09a2 a0bd 4d6d 8a3d 6046 2cbd
00000250: 1a82 403d 6de1 5dbb 4972 093d 401d 61bc
00000260: 1d83 1b3d 79a5 43bd e175 c9bc 1748 b33d
00000270: 732e 85ba 4c6f d0bd 642f ba3d 0e7b 27bb
00000280: c4db abbd 038d c43c 0658 b43d 21ab b1bd
00000290: 42bc ba3d b96f 1a3d b12a 7ebd f87e ac3d
000002a0: f2a6 813c 9dfe 543c 4328 12bd 7484 c83d
000002b0: d54a 46bd 0a20 b73d 8969 913d c199 6ebc
000002c0: 9f2e 353c 88b1 a63c 1c22 8a3c ef3d 99bd
000002d0: a39e 073d 2a32 92bd 1f49 bbbd 1740 a13d
000002e0: 8079 41bb 0c83 3bbd 84ee 26bc c972 9abd
000002f0: 568f 963d f940 0ebd 044c b7bd 91aa 93bb
00000300: b937 b63d 6d2f d5bc b965 593d 12b0 923d
00000310: 853d 5b3d dc8c f1bb edc8 c0bd 8179 b7bd
00000320: 7a2b 37bd d54d aabd 654d d03c cd40 d53c
00000330: d19b a63c 0e04 b03d d877 2e3c c7ad f1bc
00000340: d17f f3bc 9bd9 853d 0935 82bd fcaa 2bbd
00000350: 8817 adbd 0ace 163d 2438 903d 7942 9a3d
00000360: 2a7f f8bc 3c56 d53a c133 94bd aa9f 0dbd
00000370: 26d4 d6bb 9cea c1bc 4875 8cbd 5147 883d
00000380: 940d a9bd 14c9 9f3d 526a 213d 9b3c be3c
00000390: 6731 90bc bdec fdbc 72e6 ba3d 7e94 de3c
000003a0: 4c20 803d 714d 813d f5c1 823d cb24 173d
000003b0: 169d 8e3c ccf7 d53c 32ed 51bc aa76 15bb
000003c0: ed39 be3d 2c97 393c d0ce d8bc 4f16 863d
000003d0: 4a91 8f3d 67ae ca3d e87b d13a 2bf1 943a
000003e0: e949 b73d aa94 b2bd c18e 19bd c0ac 73bc
000003f0: 114d e13c fd96 c43d cd2a 72bd 187f 49bd
-0.011146736 0.08283295 0.027616838 -0.092785284 -0.021431591 0.100178674 -0.08967858 0.005373164
0.09288416 0.039627656 -0.08945292 0.07209528 0.013658865 -0.097766496 0.023083994 -0.085547164
0.08382687 0.024795212 -0.054526217 0.10069129 0.05159296 0.04133897 0.051859654 -0.059512854
0.07449035 -0.09669854 0.012583666 -0.09873177 -0.02959099 -0.05614022 -0.029704968 -0.00920086
-0.0797456 0.02329897 0.025812156 0.072532795 0.005237079 0.09351582 -0.07179089 -0.055582874
-0.0058968943 0.018185005 -0.036298834 0.07023827 -0.07847634 0.026912639 0.079880066 0.09825984
0.0044252407 -0.048127603 0.07733326 -0.05285553 -0.08489225 -0.10183187 -0.0010167386 0.043139502
0.07373968 -0.08593218 0.026473712 0.036461893 -0.03154142 0.09674921 0.008774621 -0.07472616
0.007596333 0.00094869 -0.08046904 0.07857225 0.07999455 -0.0032714924 -0.033118445 -0.101601444
0.030379737 -0.07394746 0.029291408 -0.00089263776 0.096631214 0.020286385 0.017730942 0.021952633
0.10144912 0.05188193 -0.07591484 0.022062559 -0.07304876 0.08762191 -0.043270245 -0.06179777
0.03857477 0.061307583 -0.093428284 -0.09335885 -0.0063708373 0.061404966 0.091773815 0.08492248
-0.06438369 0.047277182 0.057014145 -0.018441359 0.02615369 -0.0855734 -0.09698948 -0.04003978
0.047373813 -0.075298324 -0.041883044 -0.012689054 -0.08753848 0.07724107 -0.081647806 0.0882621
-0.04556755 -0.013972938 -0.09911495 0.04500474 -0.09998629 0.002297374 -0.074659936 0.048246603
-0.062125433 -0.03595006 0.016515363 -0.025468264 -0.0017712351 0.0978666 -0.01551517 0.051416103
-0.03890662 0.0052258126 0.087283716 0.017151147 -0.066843964 0.09491209 0.001028954 -0.08000743
-0.0421479 0.095801786 -0.01856855 0.094577946 -0.012066968 0.06695214 -0.0056232275 0.09518408
-0.09679361 -0.07843406 0.06759129 -0.042059302 0.046999075 -0.0033856288 0.033556256 -0.013739884
0.037966836 -0.04776523 -0.024592342 0.087539844 -0.0010160938 -0.10177478 0.0909107 -0.0025555524
-0.08391526 0.02399302 0.08805852 -0.086752184 0.091179386 0.037704203 -0.062052432 0.08422655
0.015826676 0.013000158 -0.035682928 0.097908884 -0.04841121 0.08941658 0.07100207 -0.014563025
0.011058479 0.020348325 0.016861968 -0.07482516 0.033110272 -0.07138474 -0.09144806 0.07873552
-0.0029521883 -0.045779273 -0.0101887025 -0.07541425 0.07351558 -0.03472993 -0.08950046 -0.004506417
0.08897347 -0.026023591 0.053075526 0.07162489 0.053525466 -0.007371528 -0.094133236 -0.08958722
-0.044719197 -0.083156265 0.02542753 0.026031876 0.02033797 0.08594523 0.01064869 -0.029501809
-0.029724034 0.065356456 -0.06357772 -0.04191111 -0.08451754 0.036817588 0.07041958 0.0753221
-0.030334074 0.001627631 -0.07236434 -0.034576096 -0.006556052 -0.02367144 -0.06858307 0.066542275
-0.08254543 0.078020245 0.039408036 0.023222258 -0.017601682 -0.030996675 0.09125985 0.027170416
0.0625616 0.06313599 0.063846506 0.036900323 0.017408889 0.026119135 -0.012812899 -0.0022806325
0.09288392 0.011327546 -0.026465803 0.06547224 0.070101336 0.09896546 0.0015982362 0.0011363378
0.08949644 -0.08719762 -0.037489656 -0.01487273 0.027502568 0.09599111 -0.05912285 -0.04919347

lstm1.bias_hh_l0 f4 [384]
00000000: fb19 46bd 16a7 a73d 12c5 8fbd 5c3d 2fbd
00000010: 7a98 ccbd 6139 9dbc 5e38 acbb b743 9c3d
00000020: 2835 92bd 5347 213d 456e 7ebd 8797 91bd
00000030: 2920 f33c 0c96 1ebb 3a8c 803d 28cc 9bbd
00000040: 061a a1bd 6673 a9bd 2a84 a63d 986f 3a3c
00000050: 2e2f a63d ed5f 60bb 77a8 44bc 586c 9abc
00000060: 0a12 97bd caa5 71bd 796b 523d 55a8 f43b
00000070: fc52 343c 40e8 6abd 4e6b 8e3c e1f1 6c3d
00000080: 13e3 773d ec61 15bd ea47 c7bd 95e7 913d
00000090: 42d8 313c c76e 4c3d 0f48 5fbd 93f3 ac3d
000000a0: 93eb 5fbc 670a 6c3d f5ec 793d e60a c53d
000000b0: 716a afbd cf96 6dbd a31f 453d 6bde 80bd
000000c0: e788 a0bd b44d 183d 89ad 5abd 9635 cf3d
000000d0: 474d 03bd 942e a7bd 379e 5ebd 78f4 9a3b
000000e0: 9bb3 b83d fc6a c9bb 0d24 97bd b8ad c3bd
000000f0: 2db4 ce3d 9855 3abd 9a2f 9a3d e361 86bc
00000100: 549a 133d 1480 31bb 2d15 aa3d ee2d ccbd
00000110: a397 453d 65e1 a7bd 0c25 e4bc 6e17 bbbd
00000120: 7b08 0f3d 38f9 84bd c9c6 a93d 3230 57bd
00000130: 1c14 afbd b790 b3bd ee56 403d 5d50 5abd
00000140: 4bca b73d 9a92 933d 2e82 693d 410b 433d
00000150: b8e2 44bd dd56 c1bd cb4b b53d 76d2 73bd
00000160: d1f2 9e3d 96f5 cdbd 107b dbbc 671a f9bc
00000170: b152 84bd 070a 443d de33 6fbc e2c3 c9bc
00000180: 3158 bfbd d9ce d4bc 6f3b 41bd 2129 89bb
00000190: dadd d03d 7efc cabd 4606 88bd 3f68 843c
000001a0: 8868 99bd fe53 0fbd dc8f 36bb 9e14 2dbb
000001b0: f18c 14bc e1ff 853a 2ce9 733c b18c 6ebd
000001c0: b979 3a3d bd7d 603d 4d71 9ebd 97e5 713d
000001d0: 871f 83bd 0600 c9bc 4c91 bbbd 9621 e1bc
000001e0: 2733 9dbc 7b6b bcbd 9f63 8fbd 7839 d8bb
000001f0: ae9a bb3d 942a 90bd 622e 783d 78b7 bbbc
00000200: 6df5 f03c e70a a1bc 8d91 bc3d 0900 c0bd
00000210: 7b6a a23c 3db3 bebd 043e b2bb dd5f 81bd
00000220: aeb8 333d f7ba 7bbc ac19 973d fd84 5bbd
00000230: cd61 803d 45a4 db3c 26f6 29bd 0d53 813c
00000240: ed52 723d 3f7b b4bc 290a 753d 00f7 8fbc
00000250: c3da 823d cfa3 b73d 927d a13c 3142 973d
00000260: 13c9 4d3d 73ca 3d3b 402b ba3d 706f a2bd
00000270: fd21 033d f335 d7bc e455 93bd dd01 80bd
00000280: 18b8 a9bd 09ab d9bb 539c 9fbd 4c27 0dbd
00000290: fcbe b8bd 534b 363c ea59 40bd 0512 89bd
000002a0: 3a47 52bd 45ad 1ebd 77d6 7dbd f257 82bd
000002b0: 7ff3 82bd 9287 b93d b5d1 ca3c 1fd0 3e3d
000002c0: b76c c7bd 4f0a ff3c 68ad b5bc 52c3 65bd
000002d0: 3fda 60bc b3d4 433d 5283 a73b 6814 c23d
000002e0: 931e c0bd 2a83 a3bd 34cb 6e3c f3fb 0abd
000002f0: 715b 263c d72d cfbd 5a69 5cbd 886c 04bb
00000300: 8aab 873d 4138 c3bd d7d2 ec3c c723 75bc
00000310: 3a19 803d afb8 513c f2fb 893d e6b8 723d
00000320: cdb2 2d3d 9b96 3b3c 008e 973d e030 d0bd
00000330: 14fc cebd a708 91bc e150 82bd b286 c53d
00000340: 45ee d0bc 7248 0f3c 4d3b 1fbd deae 21bb
00000350: 42f5 433d a36a 8dbd 426c 9f3d 4800 8f3d
00000360: 1fce abbb 8d52 cdbd 4c31 493d 70a5 b8ba
00000370: ddc8 97bd b961 953d 4cdf fbbc 9341 ed3c
00000380: a018 afbd 2257 a83d 9ec2 b93d 2d61 363d
00000390: 05ec 1bbd 98f7 6cbd c29a d0bc d81f 283d
000003a0: 8388 1ebd 7515 89bc d92b 9b3d b7cc 483d
000003b0: 325e b3bd d3a6 233d f6d6 39bd 7fc0 c63c
000003c0: 1c65 7e3d a226 febc 5f90 193c ca39 813d
000003d0: 4b25 313c 2ded aa3d aa75 a4bd 4412 ccbd
000003e0: eeea 38bd b5e2 4dbd 3788 cd3d 046c c63c
000003f0: fd99 b5bb 67f4 033d 0654 4d3d 5a91 833d
-0.04836462 0.08186166 -0.0702001 -0.042783126 -0.0999002 -0.0191924 -0.005255743 0.07630103
-0.07139045 0.03937466 -0.06211688 -0.0710898 0.029678421 -0.0024198322 0.06276746 -0.07607299
-0.07866292 -0.08273964 0.08130677 0.011379145 0.081144676 -0.0034236864 -0.012003056 -0.01885049
-0.073764876 -0.058996 0.051372025 0.007466356 0.011006113 -0.057350397 0.017385151 0.05784786
0.06051929 -0.03647034 -0.097305134 0.07124249 0.010854783 0.049910333 -0.05451208 0.084448956
-0.013667005 0.057627108 0.061016995 0.09621219 -0.08565224 -0.05800515 0.048125874 -0.06292423
-0.07838612 0.03718348 -0.053388152 0.101176426 -0.03205612 -0.08163181 -0.054350104 0.00472885
0.09018632 -0.0061467867 -0.07379923 -0.095546186 0.100929596 -0.045491785 0.075286105 -0.016404098
0.03603585 -0.0027084397 0.0830482 -0.09969698 0.048240315 -0.081972875 -0.027849697 -0.09135328
0.034920197 -0.06492847 0.082898684 -0.052536197 -0.085487574 -0.087678365 0.046957903 -0.053299297
0.08974131 0.072056964 0.057008915 0.047618154 -0.04806778 -0.09440396 0.08852347 -0.059526883
0.07761157 -0.100566074 -0.02679208 -0.030408097 -0.06461085 0.047861125 -0.014599768 -0.024629537
-0.09342993 -0.025977539 -0.04717582 -0.004185811 0.10198565 -0.0991144 -0.066418216 0.01616299
-0.07490641 -0.03499221 -0.0027856743 -0.0026409994 -0.009066806 0.0010223353 0.0148871355 -0.058239643
0.04552624 0.054807413 -0.07736454 0.059056845 -0.06402498 -0.024536144 -0.091585726 -0.027481835
-0.01918943 -0.09200188 -0.07001423 -0.0065986477 0.09160362 -0.07039371 0.06059111 -0.022914633
0.029413903 -0.019658519 0.09207449 -0.09375007 0.019826164 -0.09311531 -0.0054395217 -0.063171126
0.043877296 -0.0153644 0.073779434 -0.053593624 0.06268654 0.026811728 -0.04149451 0.015786672
0.059161115 -0.022031425 0.059824143 -0.017573833 0.06389382 0.08966791 0.019713197 0.07385672
0.050240587 0.002895978 0.090902805 -0.07931411 0.032014836 -0.026270842 -0.07194117 -0.062503554
-0.08287066 -0.0066427034 -0.07793488 -0.034461305 -0.090208024 0.011126357 -0.04696075 -0.0669289
-0.05133746 -0.03873946 -0.061972108 -0.063644305 -0.063940994 0.09059061 0.0247582 0.0465852
-0.097375326 0.031132845 -0.022177413 -0.056094475 -0.013723909 0.047810268 0.00511209 0.094765484
-0.093808316 -0.07984002 0.014574815 -0.033931684 0.010153637 -0.10116165 -0.05381141 -0.0020206291
0.06624515 -0.09532214 0.02890913 -0.014962143 0.062548116 0.01280038 0.06737508 0.059258364
0.042406846 0.011449481 0.07400131 -0.10165572 -0.10106674 -0.017704321 -0.06363083 0.09644832
-0.02550424 0.0087453 -0.038874913 -0.002467088 0.047841318 -0.06905105 0.077843204 0.069824755
-0.0052430774 -0.10025511 0.04911928 -0.001408739 -0.074113585 0.0729403 -0.030746125 0.028961932
-0.08549619 0.08219744 0.090703234 0.044526268 -0.038066883 -0.05785331 -0.02546442 0.041045994
-0.038704406 -0.016733864 0.07576723 0.049023356 -0.08758201 0.039954018 -0.04537102 0.024261711
0.062108144 -0.031024281 0.0093728 0.063098505 0.010812114 0.08346019 -0.08030255 -0.099644214
-0.04514592 -0.050265033 0.100357465 0.024221428 -0.0055420385 0.032215502 0.05012896 0.06424208

lstm2.weight_ih_l0 f4 [16, 4]
00000000: e620 81be e818 d9be cefa aebe a8d4 513e
00000010: 5897 2abe 82aa cb3e 30b9 30bd b819 513e
00000020: 58c7 743e 94b9 43be 0040 9e3c f05d 6d3d
00000030: d4ed 5fbe 685b 983d 3c95 3ebe d0ee 5d3e
00000040: 2488 46be 7670 ca3e a0b4 2cbd 88c6 793e
00000050: 7827 d13e ced1 b4be f07c a13d 2073 74be
00000060: 2cce 723e 48ba e1be e043 debd e031 08bd
00000070: c030 9a3c e2c6 fabe 1052 12bd 3467 44be
00000080: c046 00be d89a c9be 60fe 77bd 3242 e5be
00000090: 246b ddbe ec57 2c3e e606 df3e 6403 c8be
000000a0: d4d1 d5be f003 a63d 7274 a5be d02d bcbe
000000b0: ec94 96be 10f6 ecbd 0024 dbbb a802 d73e
000000c0: 969a f6be 149f b7be 4898 e83d c4ea 143e
000000d0: 704a f0be 0220 e3be 2215 d4be 0074 92bd
000000e0: f4e7 7d3e aca0 4bbe 2832 ec3d 7452 153e
000000f0: 60f3 633d 84d9 6f3e 982d dd3e ac3e 1cbe
-0.25220412 -0.42401814 -0.34175724 0.20491278 -0.16659296 0.39778525 -0.04314536 0.20419967
0.23904169 -0.19113761 0.019317627 0.057950914 -0.21868068 0.07439309 -0.18611616 0.21673131
-0.19387871 0.39538926 -0.042164445 0.2439214 0.40850425 -0.35316318 0.07885158 -0.23872042
0.23711461 -0.44087434 -0.1085279 -0.03325069 0.018822074 -0.4897986 -0.035722792 -0.19179994
-0.12526989 -0.3937595 -0.060545325 -0.44777066 -0.43245804 0.16830415 0.4355995 -0.39065087
-0.4176165 0.0810622 -0.32315403 -0.36753702 -0.29410493 -0.1157037 -0.006687641 0.41994214
-0.48164815 -0.35863554 0.1135717 0.14542681 -0.4693179 -0.44360358 -0.41422373 -0.071510315
0.24795514 -0.1988551 0.11533004 0.14582235 0.055652022 0.2342282 0.43198848 -0.15258282

lstm2.weight_hh_l0 f4 [16, 4]
00000000: 14de 4b3e d012 c93e b4af 173e a4d3 67be
00000010: 58f7 d0be cc22 da3e 544a d4be 10b2 4d3e
00000020: 0c6f b43e 8060 173c b0e7 f83d c0c8 163d
00000030: 9610 eabe f08d dd3d 96f8 873e 0a0f e53e
00000040: 7c0e 37be c8a0 3dbe 5cea 9f3e 5e44 8dbe
00000050: 6043 363d 60a2 d33e 20e1 17be 04d6 973e
00000060: 586f 89bd bc6f 8abe 284f c0bd 0043 92bc
00000070: a4aa 503e ea36 8abe ecc7 fb3e 00ca 753e
00000080: 3a17 f6be 4608 efbe a06b a03d 602f 483d
00000090: d467 97be 3811 febe 94bb 3fbe 207f abbe
000000a0: e892 893e 400c 273d 0018 a539 0899 c1be
000000b0: 6a86 b83e a414 91be 70e3 7c3d ee8f f8be
000000c0: f852 fabe 98b3 a6bd 5ca2 1e3e 80d0 53bc
000000d0: 94e3 2cbe 2802 af3e d873 a13e 1c36 dbbe
000000e0: e03c 8b3c d482 76be 2682 ae3e e8c5 de3d
000000f0: c8d9 2b3e bed6 b43e 64ca 9c3e ca8e c33e
0.19908935 0.39272165 0.14813119 -0.22639328 -0.40813708 0.42604673 -0.41462958 0.20087457
0.35240972 0.009239316 0.12153566 0.036812544 -0.4571578 0.10818088 0.26556844 0.44738036
-0.17876619 -0.18518364 0.3123349 -0.27591223 0.044497848 0.4133482 -0.14831972 0.29655468
-0.0671069 -0.27038372 -0.09390098 -0.017854214 0.20377594 -0.2699502 0.49175966 0.24002838
-0.48064595 -0.46686 0.07833028 0.048873305 -0.29571402 -0.49622512 -0.18723899 -0.33495426
0.26869893 0.040783167 0.00031489134 -0.37812066 0.3604005 -0.2833606 0.06174034 -0.4854731
-0.48891425 -0.081397235 0.15491623 -0.012928128 -0.16883689 0.34181333 0.31533694 -0.4281472
0.0169968 -0.24073344 0.3408367 0.10877591 0.16782296 0.35320085 0.30623162 0.38194877

lstm2.bias_ih_l0 f4 [16]
00000000: e024 c53c 2e26 c8be 00aa b43b 60fb bcbe
00000010: 8086 89be 3832 30be b056 0c3d cae0 99be
00000020: 2c91 26be 02f2 ec3e a027 db3e 20a0 29bd
00000030: 30a7 db3d e69f fdbe e657 84be aa4b 99be
0.024065435 -0.3909163 0.0055134296 -0.36910534 -0.26860428 -0.17206657 0.03426236 -0.30054313
-0.16266316 0.46278387 0.4280367 -0.041412473 0.10725248 -0.49536055 -0.2584831 -0.2994054

lstm2.bias_hh_l0 f4 [16]
00000000: 2298 afbe a2f1 953e 90bd 75bd f89e 93bd
00000010: 2c4a d1be 00bd 6e3e d259 b13e bca3 65be
00000020: 2271 febe 10d2 403d 0055 8ebb 806d fb3d
00000030: 88a5 c6bd 5c20 efbe e088 fcbd b077 323d
-0.34295756 0.29285914 -0.059995234 -0.07208055 -0.408769 0.23314285 0.3463884 -0.22425741
-0.49695688 0.04707533 -0.004343629 0.12276745 -0.09699541 -0.46704376 -0.12330794 0.043571174

fc1.weight f4 [96, 100]
00000000: 3bb7 e6bd e5f5 87bd 5900 af3d d103 aabd
00000010: 26f1 523e 96f1 5fbd 93b5 e83d 8191 b3bd
00000020: a6d2 453d 6425 6bbc 6a95 a83d 37cc 823d
00000030: 516c 8e3e 8d79 543e fdf2 e6bd 9842 7dbe
00000040: e601 2a3d 4b16 a23d b1fc 263c 568b 483d
00000050: 1d01 183e 29db 1c3e ff0d edbc 9dbd c6bd
00000060: 547d d63c 29d1 c4bc aa03 0ebd 3a94 ebbd
00000070: a530 143e 2e89 23be 4d51 0dbd 57b6 c43d
00000080: aa9e 72bd 52c0 a73d 39d6 81be 55e9 d53d
00000090: 5ea5 bbbb 9b51 fbbb cef5 5b3e 5469 3ebd
000000a0: 2a1b d1bd 8c08 28be 6fa1 5c3e dc06 96bd
000000b0: c02d 1fbe 8045 86bd 3c83 093c d715 16be
000000c0: 8cc0 70bc 7ca3 20bd 5db5 d8bd b263 cd3d
000000d0: 42b8 1dbd 8685 183d 7d1c f43d 85ef c6bb
000000e0: c84a c0be 942d 0ebd 6b96 39bd 3f7b 89bd
000000f0: 5f4a 033e c5dc 123d c893 4b3d 07c7 3d3e
00000100: 1aac 07be 3df8 39bd f155 143d 2d05 f7bd
00000110: 9177 d33d 2ca4 07bf 9c9f 55bc f9a7 bfbd
00000120: 9c38 7ebd 2f7a ad3d 4d07 123e a6b0 d03b
00000130: 1974 c1bd 6d51 023e b77e e53b 4ea7 dfbd
00000140: 0d3d 14be 632f 603d a9c3 593d 2a8d bcbd
00000150: 4600 6dbd 1062 33be eb20 18be 2c44 8fbd
00000160: 2b76 273e 0b52 9fbd 7bd8 7b3d fff2 0dbe
00000170: 1ec1 2bbc accb e3bc 54e1 aebd 1de9 cdbd
00000180: 101f 543d 127b 973d 9b42 b7bd f6ad afbd
00000190: 0478 7ebd 6a34 013c 87ab 5abd 836d 95bd
000001a0: 5766 663e cb97 603e 582a b63d d351 203d
000001b0: 86dc 263e 0693 183e bb2b 2a3d 80a9 d03d
000001c0: 6900 293e cfb4 0b3e 80af 42bd 2c1d ca3e
000001d0: e47f 4ebe ef12 0fbe 23fe 73bd c1c8 53bd
000001e0: 2592 4dbe 3083 a2bd 77da 893d 60d0 fe3c
000001f0: 6330 043e 4b88 3dbd 2fa2 37bd abc0 883d
00000200: 6172 233c f902 eabd c644 783c a687 ad3c
00000210: aa1b 34bd 0db6 973d 5177 ea3d 8245 ab3c
00000220: 9b4c 4cbd 58cf d23d 201e 23be 49a9 8d3d
00000230: 8904 2f3e 7d5c 45bd 7bab d33a 1f3d ea3d
00000240: f13e e3bd fdbb 103d 95af 0ebe af7c 41bd
00000250: 155a 9eba bfd8 293d 67c7 9c3e cb5a 6d3d
00000260: 959e f4bd c1da 2dbd 0572 c73d c53b ca3a
00000270: 1568 31bf 70cb 5dbd b8d4 19be 82f8 cc3d
00000280: d847 a93d 304b 3abd 43ae 02bd 76fb 4ebc
00000290: 2e34 2b3d 2b81 543e 5588 3bbc 5756 1c3d
000002a0: 50a3 993d 599f b43e c931 07bd ef01 7b3d
000002b0: 2104 aabd 2d11 51bd 9f52 60bd 0a5a 76bc
000002c0: ea12 84bd 6889 32bf aab6 53bd cbc9 683c
000002d0: 270a 1bbe cdfa 8c3d 2b86 173d f964 bfbb
000002e0: 1dbc f23c 87c6 c13e a91d 803e d78c 2cbd
000002f0: e6e1 73be 3016 2d3d 0d3a 503e d289 29bd
00000300: 9bae 823d 2c57 2d38 c299 3b3c b1c0 30bd
00000310: 4b9d 87bd 39fa 173e dcbc debd 2dff 073d
00000320: 04df 623d edf0 b4bc c9d8 28bd c095 b63d
00000330: 4ca2 efbb eec4 883d c72c b3bc 9f59 75bd
00000340: 01d1 f43c eef8 853d f9d9 6fbd f935 09be
00000350: 03d5 8d3d 2aab f13d 8114 8fbd bd9e ffbd
00000360: a086 073e 94ac c33a 136f 81bd f61a 323d
00000370: b2b2 ab3d b09d 08be 9737 043e ab75 873d
00000380: 6c94 8a3d 1741 b03d 2429 06bf 5507 04be
00000390: effc 6c3d 5bb3 3e3e dcd2 8c3d d47d 2e3d
000003a0: f3d8 bdbb fad7 e63d c4c6 233e 86e4 e1bc
000003b0: 182b dabc 6afb a63d d785 8d3c e83e 20be
000003c0: ccc0 bcba 9cce 0fbb 2ae1 17bf 4ff6 e43c
000003d0: f684 e2bd 1951 c7bb e40e 953d c90d ad3d
000003e0: b7fe 2b3c a030 7e3d 18e3 133e 1823 2bbd
000003f0: f6ed 8bbd 4a0b 3abd 6b4e 40be 9cbb aebd
-0.11265417 -0.066386975 0.08544988 -0.08301509 0.20599803 -0.054673754 0.113627575 -0.08767987
0.048296593 -0.014352176 0.082316235 0.06386607 0.27817014 0.20749493 -0.11276815 -0.24732435
0.041505717 0.07914408 0.010192082 0.048961006 0.14844175 0.15317978 -0.028937338 -0.097041346
0.026182808 -0.024025517 -0.034671463 -0.11502881 0.14471681 -0.15970299 -0.034501363 0.09605091
-0.059233345 0.08190979 -0.2535875 0.10444895 -0.0057265004 -0.0076696402 0.21480486 -0.046487167
-0.10210259 -0.1640951 0.21545957 -0.07325527 -0.15544796 -0.06556225 0.008393105 -0.14656769
-0.014694344 -0.03921841 -0.10581467 0.10028781 -0.0385058 0.037236713 0.11919496 -0.0060710334
-0.37557054 -0.034711435 -0.045309465 -0.067129605 0.12821339 0.035855073 0.049701482 0.18532954
-0.13249245 -0.045402754 0.036214773 -0.12061534 0.1032554 -0.5298488 -0.013038542 -0.0935821
-0.062065706 0.0847057 0.14260598 0.0063687144 -0.09445972 0.12726374 0.007003631 -0.10920583
-0.14476414 0.05473269 0.05316511 -0.092066124 -0.05786159 -0.17517877 -0.14856307 -0.06995425
0.16353671 -0.0777932 0.06148575 -0.13862227 -0.010483054 -0.02780708 -0.08539072 -0.100542285
0.051787436 0.07396521 -0.08948251 -0.08578102 -0.062126175 0.007886032 -0.053386237 -0.07296278
0.22499977 0.21932904 0.08894795 0.039140534 0.1629506 0.14899835 0.04154561 0.101885796
0.16504063 0.13643192 -0.04753065 0.3947538 -0.20165974 -0.13972066 -0.059568536 -0.051705126
-0.20075281 -0.07935178 0.06731122 0.03110522 0.12909083 -0.046272557 -0.044832405 0.066773735
0.0099760005 -0.11426348 0.015153116 0.021182846 -0.043971695 0.0740777 0.11448539 0.020907167
-0.049877744 0.10293454 -0.1592946 0.06917054 0.17091574 -0.048183907 0.0016149128 0.11437439
-0.110959895 0.03533553 -0.13934167 -0.04723805 -0.001208129 0.04146647 0.30620882 0.057947915
-0.119443096 -0.042444948 0.097385444 0.001542919 -0.6929944 -0.05414909 -0.15022552 0.100083366
0.08265656 -0.04548186 -0.03190447 -0.012633195 0.04179781 0.20752399 -0.011446078 0.038168278
0.075018525 0.35277823 -0.033006463 0.06128114 -0.08301569 -0.05104177 -0.054766294 -0.015036115
-0.0644892 -0.69740915 -0.051687874 0.014208267 -0.15140592 0.06883774 0.036993187 -0.0058408943
0.029630715 0.37846777 0.2502263 -0.042126503 -0.23816642 0.042257488 0.20334645 -0.0413912
0.063809596 4.13276e-05 0.011450233 -0.043152515 -0.06621798 0.14841546 -0.10875866 0.03320234
0.055388466 -0.022087539 -0.041222367 0.08915281 -0.0073130485 0.06678186 -0.021871937 -0.059899922
0.029884817 0.0654162 -0.058557484 -0.13399495 0.069253944 0.11800225 -0.06986333 -0.12481449
0.13234949 0.0014928752 -0.06320014 0.043482743 0.08383693 -0.13341403 0.12911831 0.0661424
0.067665905 0.08606165 -0.52406526 -0.12893422 0.057858404 0.18623106 0.06876156 0.042600468
-0.0057936846 0.11271663 0.15993792 -0.027574789 -0.026631877 0.08153422 0.017275734 -0.15648997
-0.001440072 -0.0021943217 -0.5932795 0.02794948 -0.110605165 -0.0060826656 0.07278231 0.08449895
0.0104977405 0.06205809 0.14442098 -0.041781515 -0.06832497 -0.045420922 -0.18779914 -0.085318774

fc1.bias f4 [96]
00000000: 0c8c 8e3d e711 d6bd 2aef b13d a3da 733d
00000010: c37e 9f3d 98f4 8ebb fe0b 63bd 9778 a3bd
00000020: 5ccd 933d 3160 a43d 530f 573b 4c50 903d
00000030: c6d8 9a3a 0191 673d 8651 00bc 862c 89bc
00000040: f535 4c3d f4f7 af3d 891a 933d d59c 4abd
00000050: 48e1 76bd 478a a2bd 2fe3 d8bb b5d2 b93d
00000060: f8e2 2e3d 1dea cf3c 16ff 243d ac1c e23b
00000070: d148 95bd 491c 3d3d dcd7 adbd ab13 a43d
00000080: 5f2b 1fbd 5644 33bd 172d 2e3d 5ad9 51bd
00000090: e3dc cb3d a5a0 47bd f9ca 923c 07d9 8fbc
000000a0: bd41 633d 12a7 66bd 68cf 08bd 3d6c d23c
000000b0: d610 4d3d 1ca1 32bd 3c79 5f3d 5cd8 833d
000000c0: 4243 32bc daae b33c 54d2 10bc c17e bcbd
000000d0: 9ac6 bc3d e464 75bd 8b68 423d c05d 28bd
000000e0: f832 4dbd a81f cd3d 65d3 bbbd f1c3 24bd
000000f0: 2541 c2bd 83f5 2f3d a0c0 4f3d fa3c 373d
00000100: 966b b73d ed96 cf3c 1a3e 233d 701d 0b3d
00000110: 50d4 d83c ed5e 3bbd 005f 2dbd 9f20 6f3d
00000120: 5b0f 36bd 3a21 a93d f9b3 923d 4f30 713d
00000130: 42df 813d 611b 88bd 5671 923c f099 4bbd
00000140: bb9a ddbd 12ae 32bc fb3d b33d cc09 d03c
00000150: 6f7b 8dbc 1071 f23c a8b5 043d 266c 543d
00000160: eb94 4ebd abbc 0d3d c059 553b d801 e5bc
00000170: 382b de3c 0a85 07be 4569 aa3d 41b4 423c
0.069603056 -0.10452633 0.08688195 0.05953468 0.0778785 -0.004362654 -0.05543136 -0.07981985
0.072169036 0.080261596 0.003281553 0.070465654 0.0011813871 0.05653477 -0.007831937 -0.016744863
0.049856145 0.08592215 0.071827956 -0.049465973 -0.06027344 -0.079365306 -0.0066188793 0.09073392
0.042696923 0.025380189 0.04028233 0.0069003906 -0.07289279 0.046169553 -0.084884375 0.08011564
-0.03885972 -0.043766342 0.04252347 -0.051232673 0.0995424 -0.048737187 0.01791905 -0.017559541
0.055482615 -0.056311674 -0.033400923 0.025686378 0.050064884 -0.043610677 0.054558977 0.06437752
-0.010880293 0.021933962 -0.008839209 -0.09203864 0.09217568 -0.05991067 0.04746298 -0.041105032
-0.050097436 0.100158036 -0.0917118 -0.040225927 -0.094850816 0.042958748 0.05072081 0.044735886
0.08956067 0.025340522 0.039854147 0.03396362 0.026468426 -0.045744825 -0.042326927 0.05838072
-0.044448238 0.082582906 0.07163233 0.05888396 0.06341411 -0.06645847 0.017876308 -0.049707353
-0.10820528 -0.010905759 0.08752056 0.025395297 -0.017270772 0.029594928 0.032399803 0.05186095
-0.050434988 0.034603756 0.0032554716 -0.02795498 0.027120218 -0.13234344 0.0832086 0.011883796

lstm3.weight_ih_l0 f4 [384, 96]
00000000: fcf0 533e 9ce6 edbb 405b 673c 227a ef3c
00000010: 634e 51bd 52ad 5c3d 1bad b9bd 9e62 783d
00000020: 05d9 0abd bd14 a63d e2b8 ad3e c422 6fbe
00000030: dccb 673e b1c7 f8bc 102a 003e 5abe 9dbb
00000040: b540 a3be 4ab3 b4bd f381 08be 0f2a 823d
00000050: 5c09 dabd c85b fd3d e35c 063e 6f56 143e
00000060: cf88 a7bc 4402 37bc 3908 2fbe d8d5 97bd
00000070: 2fd5 303d 9718 e7bc 23ac 8e3d 1977 8ebd
00000080: f5f6 54bc 151b 9ebc 232d 05be 2232 7bbe
00000090: 89b1 02bc 76b1 223e eb60 b0be 8f67 763d
000000a0: 1107 c9bd dee9 57bd 22d1 66bd fe18 063e
000000b0: 80aa 173e c435 47bd 1cbb d8be 05f8 073e
000000c0: 808a cebd 48a1 a33e 2423 64bd 7dc2 163d
000000d0: fb76 013d a4a0 693e 86b5 5c3d 4a71 093e
000000e0: bea2 46bd cc61 95bc 9a95 96bd 7bb7 debd
000000f0: 1acc ae3b cf89 b43d 587a 8b3d 6909 d8bd
00000100: 8d65 9cbd 86c7 ef3d 0806 21be ee1d 5b3d
00000110: 5c41 b6bc 5b1b cc3b 24ba a6be 40e8 edbd
00000120: 1311 003e a5e2 c4be d03c 31bd c541 173d
00000130: f58e 01bd 3157 7bbe 9f27 c1bd 83ee bd3d
00000140: 6020 c1bd 6f6a 60bd e67d 80bd 860d 5a3d
00000150: a054 6f3b 00af 763d 4502 83bd ce46 843e
00000160: ace3 e0bd 9252 88be 5256 073d bf52 6a3c
00000170: 5552 4a3d 6452 41be 83b3 9cbc eeb7 6bbe
00000180: 0669 3cbe 587b 53bd 9f61 883e 9252 793d
00000190: 4349 66bd 9cb8 cb3c 9e4b 97bb d9ce d93d
000001a0: 949d 113e 45a9 b23d 8d22 693d c0a4 e7bc
000001b0: 54cd 053d e558 ae3d 2016 84be 270e d0bd
000001c0: b0d1 fbbd 28c7 963d ec3d 0e3e 4b8a 5a3c
000001d0: e926 b93c a9da 1cbd 65f7 2bbe 471c 0b3d
000001e0: c77d 4ebd fc42 b73c e5c3 b4bc 5d99 603d
000001f0: a06e 23be d66f 9c3d d8a1 dfbd 182d c83d
00000200: ea4e 51bd b85b a33d 667d 04bd 003f 54bd
00000210: 9ba1 f53c 37ed e73d e766 203e 6935 51bd
00000220: bb64 fabc ad9c 6e3d 76df 583d 4cec f8bd
00000230: 8d0d 003d 2b2e ad3e 5019 68bd 3b29 753d
00000240: 7e4c d1bd c10b 383f 0d0b 40bd c4a7 31bd
00000250: c656 9abd 6b82 383c 1de9 e23c 3123 b63e
00000260: 94aa e4bd dbea adbc 8eb8 8d3c e20c 7b3d
00000270: fe16 0abe a086 663e e7fe 0ebd a12b 0e3e
00000280: 82cf 853d 4b74 0d3e 984e 6d3e 9d38 f3bc
00000290: b732 e8bc edf3 d2bc 64c9 13bd 0c5b fd3d
000002a0: 2d2b 77bd c482 9e3c 5918 debd db4e 0dbe
000002b0: 7799 5dbd 2a29 003d b70e bc3d d9af 4a3c
000002c0: 5d30 223d 2e23 09bd 6341 183d 5184 533c
000002d0: 0e7f 9b3d ff2d 643e 1de1 543e 67a8 89bd
000002e0: b871 f4bd e92f 873d 5530 943d bd83 da3d
000002f0: 8f51 c3bb 04c0 573e 3356 a93d 4ab3 063e
00000300: 444c fb3c b1b5 8ebd ebf0 b0bd ae5a 953d
00000310: 8433 adbc 6d1f 03bd fb18 09be 4113 013e
00000320: f1d7 21be ff1f da3c d2e3 febd e54c 6a3d
00000330: c387 79be 578c cdbb f578 5e3e 8ee0 5abd
00000340: ae13 ee3d 11fe 16bd a711 7cbd 16ef 75bd
00000350: decc 4b3d 7fca 813d 8fe8 003f ad15 9f3d
00000360: 1bd8 633c fb59 993d dcb8 c0bd c411 a6be
00000370: aa3e ff3d 5d5b a7bd 5669 34bd 9ec1 223d
00000380: 5553 17bc b02d c0bd ec9f 14be ad76 7b3e
00000390: 6bb5 04be 9107 98ba a0d5 31be 7034 a33e
000003a0: a0ce 25be 2f10 53bd 2b79 cc3b 7228 babd
000003b0: db44 24bd c873 cdbd 94f3 f6bd 49f3 adbd
000003c0: 9bb5 24bd 3212 5cbf b180 5a3e bddc 32bc
000003d0: 1025 923d fe08 30bd 1b0d 8bbd c824 7abd
000003e0: 60bc 7fbd 9635 78bd 5489 c9bd d788 74be
000003f0: 5de7 9f3c 872c 04be b8d7 85bd 393e 44bd
0.20697397 -0.007260157 0.014120877 0.029233042 -0.051100146 0.05387623 -0.090662204 0.060640924
-0.033898372 0.08109424 0.33930117 -0.23353106 0.2263636 -0.030368658 0.12516046 -0.0048139514
-0.31885305 -0.08823259 -0.13330822 0.06355678 -0.106463164 0.123710215 0.13121371 0.14486097
-0.020450978 -0.011169974 -0.1709298 -0.07413834 0.043172058 -0.028209968 0.06966426 -0.0695631
-0.012998332 -0.019300023 -0.130055 -0.24530843 -0.007976898 0.15888008 -0.34448943 0.060157355
-0.09815801 -0.052713268 -0.05635179 0.13095471 0.14811134 -0.04863526 -0.42330253 0.13278206
-0.100850105 0.31958985 -0.055697575 0.036806572 0.03160761 0.22815186 0.05388405 0.13422123
-0.048495047 -0.01823511 -0.07352753 -0.1087484 0.0053343894 0.088153474 0.068104446 -0.1054867
-0.07636557 0.11707978 -0.15724957 0.05349534 -0.022247963 0.006228847 -0.3256389 -0.11616564
0.12506513 -0.38454166 -0.043270886 0.036927957 -0.031630475 -0.2454498 -0.09431385 0.09274008
-0.09430003 -0.054789003 -0.06274013 0.053235553 0.0036518946 0.060225487 -0.06396917 0.2583527
-0.10980925 -0.26625496 0.033041306 0.014301955 0.049394924 -0.18879086 -0.019128567 -0.23019382
-0.18399438 -0.0516313 0.2663698 0.06086976 -0.05622221 0.024868302 -0.0046171686 0.10635156
0.14220268 0.08723692 0.056917716 -0.028276801 0.03266652 0.08513049 -0.2579813 -0.10158949
-0.12295854 0.07362205 0.13890809 0.013338636 0.022601562 -0.038294468 -0.16793592 0.033962514
-0.05041292 0.022370808 -0.022066066 0.05483376 -0.15960169 0.076385185 -0.10919541 0.09774226
-0.05110065 0.07976478 -0.03234615 -0.051817894 0.029984286 0.11324542 0.15664254 -0.051076327
-0.03056561 0.058254886 0.052947484 -0.12154445 0.031262923 0.33824286 -0.056664765 0.059853774
-0.10219668 0.71892935 -0.04688554 -0.043372884 -0.07536082 0.011261563 0.027699048 0.35573724
-0.11165348 -0.021230152 0.017299917 0.061291583 -0.13485333 0.22512293 -0.034911063 0.1388383
0.065337196 0.13813893 0.23174512 -0.029690081 -0.028344495 -0.025751079 -0.036080733 0.123708814
-0.06034391 0.019349463 -0.10844488 -0.13799612 -0.054101434 0.031289257 0.09182494 0.012371027
0.039596904 -0.033480816 0.037171733 0.012909965 0.07592593 0.22283171 0.20788999 -0.06721573
-0.11935753 0.06600935 0.07235781 0.10669658 -0.0059606503 0.21069342 0.08268394 0.13154331
0.030676015 -0.06968249 -0.086397015 0.072926864 -0.021142729 -0.03201239 -0.13388436 0.12605001
-0.15805031 0.026626585 -0.12445797 0.05720224 -0.24368195 -0.0062728333 0.21725829 -0.05343681
0.11624847 -0.03686339 -0.061540272 -0.060042463 0.049755923 0.06337451 0.50354856 0.07767806
0.013906504 0.074878655 -0.09410259 -0.3243543 0.12463124 -0.08171723 -0.04404577 0.03973543
-0.0092361765 -0.09383714 -0.1451413 0.2455699 -0.1295983 -0.0011598935 -0.17366648 0.31875944
-0.16192102 -0.051529106 0.0062400303 -0.090897456 -0.04010473 -0.10031849 -0.120581776 -0.084936686
-0.040212255 -0.85965264 0.21338154 -0.010916886 0.07135975 -0.042977326 -0.06789609 -0.061070234
-0.062435508 -0.06059798 -0.098406464 -0.23880325 0.019519502 -0.12907611 -0.06535286 -0.047910903
